module {
  func.func @main(%arg0: tensor<1x224x224x3xi8> {ml_program.identifier = "input"}) -> (tensor<1x1001xi8> {ml_program.identifier = "MobilenetV1/Predictions/Reshape_1"}) {
    %0 = "tosa.const"() <{value = dense<"…"> : tensor<3x3x1024x1xi8>}> : () -> tensor<3x3x1024x1xi8>
    %1 = "tosa.const"() <{value = dense<"…"> : tensor<3x3x512x1xi8>}> : () -> tensor<3x3x512x1xi8>
    %2 = "tosa.const"() <{value = dense<"…"> : tensor<3x3x512x1xi8>}> : () -> tensor<3x3x512x1xi8>
    %3 = "tosa.const"() <{value = dense<"…"> : tensor<3x3x512x1xi8>}> : () -> tensor<3x3x512x1xi8>
    %4 = "tosa.const"() <{value = dense<"…"> : tensor<3x3x512x1xi8>}> : () -> tensor<3x3x512x1xi8>
    %5 = "tosa.const"() <{value = dense<"…"> : tensor<3x3x512x1xi8>}> : () -> tensor<3x3x512x1xi8>
    %6 = "tosa.const"() <{value = dense<"…"> : tensor<3x3x512x1xi8>}> : () -> tensor<3x3x512x1xi8>
    %7 = "tosa.const"() <{value = dense<"…"> : tensor<3x3x256x1xi8>}> : () -> tensor<3x3x256x1xi8>
    %8 = "tosa.const"() <{value = dense<"…"> : tensor<3x3x256x1xi8>}> : () -> tensor<3x3x256x1xi8>
    %9 = "tosa.const"() <{value = dense<"…"> : tensor<3x3x128x1xi8>}> : () -> tensor<3x3x128x1xi8>
    %10 = "tosa.const"() <{value = dense<"…"> : tensor<3x3x128x1xi8>}> : () -> tensor<3x3x128x1xi8>
    %11 = "tosa.const"() <{value = dense<"…"> : tensor<3x3x64x1xi8>}> : () -> tensor<3x3x64x1xi8>
    %12 = "tosa.const"() <{value = dense<"…"> : tensor<3x3x32x1xi8>}> : () -> tensor<3x3x32x1xi8>
    %13 = "tosa.const"() <{value = dense<-128> : tensor<1x1xi32>}> : () -> tensor<1x1xi32>
    %14 = "tosa.const"() <{value = dense<2.560000e+02> : tensor<1x1xf32>}> : () -> tensor<1x1xf32>
    %15 = "tosa.const"() <{value = dense<0.166099221> : tensor<1x1xf32>}> : () -> tensor<1x1xf32>
    %16 = "tosa.const"() <{value = dense<-6.200000e+01> : tensor<1x1xf32>}> : () -> tensor<1x1xf32>
    %17 = "tosa.const"() <{value = dense<"…"> : tensor<1001xi32>}> : () -> tensor<1001xi32>
