{"parentUuid":"f12af166-3f73-4863-91a8-7a7986a71b00","isSidechain":true,"userType":"external","cwd":"/local/nick/ai_iree","sessionId":"cced7497-38e4-4d40-8402-805242627854","version":"2.1.44","gitBranch":"master","agentId":"acompact-7637a7","slug":"purrfect-floating-lobster","message":{"model":"claude-opus-4-6","id":"msg_01EyRVLVpYm6dDpYFB2zXSV1","type":"message","role":"assistant","content":[{"type":"tool_use","id":"toolu_01Me2L25YZND97RvLJspUnm2","name":"Edit","input":{"replace_all":false,"file_path":"/local/nick/ai_iree/tests/script/test_fused_template.py","old_string":"        _, extra_inputs_spec = analyzer.extract_fused_template(DISPATCH_F32_BIAS_ADD)\n        assert len(extra_inputs_spec) == 0","new_string":"        _, extra_inputs_spec = analyzer.extract_fused_template(DISPATCH_F32_BIAS_ADD)\n        assert len(extra_inputs_spec) == 0\n\n\n# =============================================================================\n# Test fixture: i8 matmul + requantize (DeepLab_int8 dispatch_104)\n# =============================================================================\n\n# FILL -> MATMUL -> GENERIC_P_01_1_1_1_01_addi_addi_maxsi_minsi_trunci\n# M=1024, N=768, K=192, dtype=i8, out_dtype=i32, final_dtype=i8\n# Extra generic inputs: tensor<768xi32>, tensor<768xi32>, tensor<768xi8> (all shape=[N])\nDISPATCH_I8_REQUANT = \"\"\"\\\nmodule {\n  hal.executable private @main_dispatch_104 {\n    hal.executable.variant public @static target(<\"llvm-cpu\", \"static\", {}>) {\n      hal.executable.export public @main_dispatch_104_matmul_1024x768x192_i8xi8xi32 ordinal(0) layout(#hal.pipeline.layout<bindings = [#hal.pipeline.binding<storage_buffer, \"ReadOnly|Indirect\">, #hal.pipeline.binding<storage_buffer, ReadOnly>, #hal.pipeline.binding<storage_buffer, Indirect>], flags = Indirect>) {\n      ^bb0(%arg0: !hal.device):\n        %x, %y, %z = flow.dispatch.workgroup_count_from_slice\n        hal.return %x, %y, %z : index, index, index\n      }\n      builtin.module {\n        func.func @main_dispatch_104_matmul_1024x768x192_i8xi8xi32() attributes {translation_info = #iree_codegen.translation_info<pipeline = CPUDoubleTilingExpert, {enable_loop_peeling}>} {\n          %c0_i32 = arith.constant 0 : i32\n          %c-128_i32 = arith.constant -128 : i32\n          %c127_i32 = arith.constant 127 : i32\n          %c0 = arith.constant 0 : index\n          %0 = hal.interface.binding.subspan layout(<bindings = [#hal.pipeline.binding<storage_buffer, \"ReadOnly|Indirect\">, #hal.pipeline.binding<storage_buffer, ReadOnly>, #hal.pipeline.binding<storage_buffer, Indirect>], flags = Indirect>) binding(0) alignment(64) offset(%c0) flags(\"ReadOnly|Indirect\") : !flow.dispatch.tensor<readonly:tensor<1024x192xi8>>\n          %1 = hal.interface.binding.subspan layout(<bindings = [#hal.pipeline.binding<storage_buffer, \"ReadOnly|Indirect\">, #hal.pipeline.binding<storage_buffer, ReadOnly>, #hal.pipeline.binding<storage_buffer, Indirect>], flags = Indirect>) binding(1) alignment(64) offset(%c0) flags(ReadOnly) : !flow.dispatch.tensor<readonly:tensor<192x768xi8>>\n          %2 = hal.interface.binding.subspan layout(<bindings = [#hal.pipeline.binding<storage_buffer, \"ReadOnly|Indirect\">, #hal.pipeline.binding<storage_buffer, ReadOnly>, #hal.pipeline.binding<storage_buffer, Indirect>], flags = Indirect>) binding(1) alignment(64) offset(%c0) flags(ReadOnly) : !flow.dispatch.tensor<readonly:tensor<768xi32>>\n          %3 = hal.interface.binding.subspan layout(<bindings = [#hal.pipeline.binding<storage_buffer, \"ReadOnly|Indirect\">, #hal.pipeline.binding<storage_buffer, ReadOnly>, #hal.pipeline.binding<storage_buffer, Indirect>], flags = Indirect>) binding(1) alignment(64) offset(%c0) flags(ReadOnly) : !flow.dispatch.tensor<readonly:tensor<768xi32>>\n          %4 = hal.interface.binding.subspan layout(<bindings = [#hal.pipeline.binding<storage_buffer, \"ReadOnly|Indirect\">, #hal.pipeline.binding<storage_buffer, ReadOnly>, #hal.pipeline.binding<storage_buffer, Indirect>], flags = Indirect>) binding(1) alignment(64) offset(%c0) flags(ReadOnly) : !flow.dispatch.tensor<readonly:tensor<768xi8>>\n          %5 = hal.interface.binding.subspan layout(<bindings = [#hal.pipeline.binding<storage_buffer, \"ReadOnly|Indirect\">, #hal.pipeline.binding<storage_buffer, ReadOnly>, #hal.pipeline.binding<storage_buffer, Indirect>], flags = Indirect>) binding(2) alignment(64) offset(%c0) flags(Indirect) : !flow.dispatch.tensor<writeonly:tensor<1024x768xi8>>\n          %6 = flow.dispatch.tensor.load %0, offsets = [0, 0], sizes = [1024, 192], strides = [1, 1] : !flow.dispatch.tensor<readonly:tensor<1024x192xi8>> -> tensor<1024x192xi8>\n          %7 = flow.dispatch.tensor.load %1, offsets = [0, 0], sizes = [192, 768], strides = [1, 1] : !flow.dispatch.tensor<readonly:tensor<192x768xi8>> -> tensor<192x768xi8>\n          %8 = flow.dispatch.tensor.load %2, offsets = [0], sizes = [768], strides = [1] : !flow.dispatch.tensor<readonly:tensor<768xi32>> -> tensor<768xi32>\n          %9 = flow.dispatch.tensor.load %3, offsets = [0], sizes = [768], strides = [1] : !flow.dispatch.tensor<readonly:tensor<768xi32>> -> tensor<768xi32>\n          %10 = flow.dispatch.tensor.load %4, offsets = [0], sizes = [768], strides = [1] : !flow.dispatch.tensor<readonly:tensor<768xi8>> -> tensor<768xi8>\n          %11 = tensor.empty() : tensor<1024x768xi8>\n          %12 = tensor.empty() : tensor<1024x768xi32>\n          %13 = linalg.fill {lowering_config = #iree_codegen.lowering_config<tile_sizes = [[64, 64], [8, 32], [0, 0], [0, 0]]>} ins(%c0_i32 : i32) outs(%12 : tensor<1024x768xi32>) -> tensor<1024x768xi32>\n          %14 = linalg.matmul {lowering_config = #iree_codegen.lowering_config<tile_sizes = [[64, 64, 0], [64, 64, 0], [0, 0, 0], [8, 32, 0], [0, 0, 1], [0, 0, 0]]>} ins(%6, %7 : tensor<1024x192xi8>, tensor<192x768xi8>) outs(%13 : tensor<1024x768xi32>) -> tensor<1024x768xi32>\n          %15 = linalg.generic {indexing_maps = [affine_map<(d0, d1) -> (d0, d1)>, affine_map<(d0, d1) -> (d1)>, affine_map<(d0, d1) -> (d1)>, affine_map<(d0, d1) -> (d1)>, affine_map<(d0, d1) -> (d0, d1)>], iterator_types = [\"parallel\", \"parallel\"]} ins(%14, %8, %9, %10 : tensor<1024x768xi32>, tensor<768xi32>, tensor<768xi32>, tensor<768xi8>) outs(%11 : tensor<1024x768xi8>) attrs =  {lowering_config = #iree_codegen.lowering_config<tile_sizes = [[64, 64], [8, 32], [0, 0], [0, 0]]>} {\n          ^bb0(%in: i32, %in_0: i32, %in_1: i32, %in_2: i8, %out: i8):\n            %16 = arith.addi %in, %in_0 : i32\n            %17 = tosa.apply_scale %16, %in_1, %in_2 {double_round = true} : (i32, i32, i8) -> i32\n            %18 = arith.addi %17, %c-128_i32 : i32\n            %19 = arith.maxsi %18, %c-128_i32 : i32\n            %20 = arith.minsi %19, %c127_i32 : i32\n            %21 = arith.trunci %20 : i32 to i8\n            linalg.yield %21 : i8\n          } -> tensor<1024x768xi8>\n          flow.dispatch.tensor.store %15, %5, offsets = [0, 0], sizes = [1024, 768], strides = [1, 1] : tensor<1024x768xi8> -> !flow.dispatch.tensor<writeonly:tensor<1024x768xi8>>\n          return\n        }\n      }\n    }\n  }\n}\n\"\"\"\n\n\n# =============================================================================\n# Test #2: extract_fused_template — i8 matmul + requantize\n# =============================================================================\n\nclass TestExtractFusedTemplateI8Requant:\n\n    def test_i8_requant_has_placeholders(self):\n        \"\"\"i8 template should have M, N, K, dtype, out_dtype placeholders.\"\"\"\n        analyzer = HighLevelMLIRAnalyzer(metadata_path=\"/nonexistent\")\n        template, _ = analyzer.extract_fused_template(DISPATCH_I8_REQUANT)\n        assert '{M}' in template\n        assert '{N}' in template\n        assert '{K}' in template\n        assert '{dtype}' in template\n        # i8 matmul has different input (i8) and accumulator (i32) dtypes\n        assert '{out_dtype}' in template\n\n    def test_i8_requant_no_concrete_dims(self):\n        \"\"\"Template should not contain original concrete dimensions.\"\"\"\n        analyzer = HighLevelMLIRAnalyzer(metadata_path=\"/nonexistent\")\n        template, _ = analyzer.extract_fused_template(DISPATCH_I8_REQUANT)\n        # M=1024, N=768, K=192\n        assert 'tensor<1024x' not in template\n        assert 'tensor<768x' not in template\n        assert 'x192x' not in template\n\n    def test_i8_requant_three_extra_inputs(self):\n        \"\"\"i8 requant has 3 extra generic inputs: two i32 + one i8, all shape=[N].\"\"\"\n        analyzer = HighLevelMLIRAnalyzer(metadata_path=\"/nonexistent\")\n        _, extra_inputs_spec = analyzer.extract_fused_template(DISPATCH_I8_REQUANT)\n        assert len(extra_inputs_spec) == 3\n        # All map to (d0, d1) -> (d1) meaning shape = [N]\n        assert all('d1' in spec['affine_map'] for spec in extra_inputs_spec)\n        # First two are i32, third is i8\n        assert extra_inputs_spec[0]['dtype'] == 'i32'\n        assert extra_inputs_spec[1]['dtype'] == 'i32'\n        assert extra_inputs_spec[2]['dtype'] == 'i8'\n\n    def test_i8_requant_preserves_generic_body(self):\n        \"\"\"Template should preserve the requantization arithmetic.\"\"\"\n        analyzer = HighLevelMLIRAnalyzer(metadata_path=\"/nonexistent\")\n        template, _ = analyzer.extract_fused_template(DISPATCH_I8_REQUANT)\n        assert 'arith.addi' in template\n        assert 'tosa.apply_scale' in template\n        assert 'arith.maxsi' in template\n        assert 'arith.minsi' in template\n        assert 'arith.trunci' in template\n\n    def test_i8_requant_no_lowering_config(self):\n        \"\"\"Template should have lowering_config stripped.\"\"\"\n        analyzer = HighLevelMLIRAnalyzer(metadata_path=\"/nonexistent\")\n        template, _ = analyzer.extract_fused_template(DISPATCH_I8_REQUANT)\n        assert 'lowering_config' not in template"},"caller":{"type":"direct"}}],"stop_reason":null,"stop_sequence":null,"usage":{"input_tokens":1,"cache_creation_input_tokens":2853,"cache_read_input_tokens":161489,"output_tokens":3356,"server_tool_use":{"web_search_requests":0,"web_fetch_requests":0},"service_tier":"standard","cache_creation":{"ephemeral_1h_input_tokens":2853,"ephemeral_5m_input_tokens":0},"inference_geo":"","iterations":[],"speed":"standard"}},"requestId":"req_011CYD8sVgW3o9Nmgo6zGvsj","type":"assistant","uuid":"d6aa9544-c3b3-46d4-be56-4b5070b61bbd","timestamp":"2026-02-17T06:05:06.093Z"}
{"parentUuid":"d6aa9544-c3b3-46d4-be56-4b5070b61bbd","isSidechain":true,"userType":"external","cwd":"/local/nick/ai_iree","sessionId":"cced7497-38e4-4d40-8402-805242627854","version":"2.1.44","gitBranch":"master","agentId":"acompact-7637a7","slug":"purrfect-floating-lobster","type":"user","message":{"role":"user","content":[{"tool_use_id":"toolu_01Me2L25YZND97RvLJspUnm2","type":"tool_result","content":"The file /local/nick/ai_iree/tests/script/test_fused_template.py has been updated successfully."}]},"uuid":"bd1ae5ff-0647-42a9-911b-b31fad7a540b","timestamp":"2026-02-17T06:05:06.182Z","toolUseResult":{"filePath":"/local/nick/ai_iree/tests/script/test_fused_template.py","oldString":"        _, extra_inputs_spec = analyzer.extract_fused_template(DISPATCH_F32_BIAS_ADD)\n        assert len(extra_inputs_spec) == 0","newString":"        _, extra_inputs_spec = analyzer.extract_fused_template(DISPATCH_F32_BIAS_ADD)\n        assert len(extra_inputs_spec) == 0\n\n\n# =============================================================================\n# Test fixture: i8 matmul + requantize (DeepLab_int8 dispatch_104)\n# =============================================================================\n\n# FILL -> MATMUL -> GENERIC_P_01_1_1_1_01_addi_addi_maxsi_minsi_trunci\n# M=1024, N=768, K=192, dtype=i8, out_dtype=i32, final_dtype=i8\n# Extra generic inputs: tensor<768xi32>, tensor<768xi32>, tensor<768xi8> (all shape=[N])\nDISPATCH_I8_REQUANT = \"\"\"\\\nmodule {\n  hal.executable private @main_dispatch_104 {\n    hal.executable.variant public @static target(<\"llvm-cpu\", \"static\", {}>) {\n      hal.executable.export public @main_dispatch_104_matmul_1024x768x192_i8xi8xi32 ordinal(0) layout(#hal.pipeline.layout<bindings = [#hal.pipeline.binding<storage_buffer, \"ReadOnly|Indirect\">, #hal.pipeline.binding<storage_buffer, ReadOnly>, #hal.pipeline.binding<storage_buffer, Indirect>], flags = Indirect>) {\n      ^bb0(%arg0: !hal.device):\n        %x, %y, %z = flow.dispatch.workgroup_count_from_slice\n        hal.return %x, %y, %z : index, index, index\n      }\n      builtin.module {\n        func.func @main_dispatch_104_matmul_1024x768x192_i8xi8xi32() attributes {translation_info = #iree_codegen.translation_info<pipeline = CPUDoubleTilingExpert, {enable_loop_peeling}>} {\n          %c0_i32 = arith.constant 0 : i32\n          %c-128_i32 = arith.constant -128 : i32\n          %c127_i32 = arith.constant 127 : i32\n          %c0 = arith.constant 0 : index\n          %0 = hal.interface.binding.subspan layout(<bindings = [#hal.pipeline.binding<storage_buffer, \"ReadOnly|Indirect\">, #hal.pipeline.binding<storage_buffer, ReadOnly>, #hal.pipeline.binding<storage_buffer, Indirect>], flags = Indirect>) binding(0) alignment(64) offset(%c0) flags(\"ReadOnly|Indirect\") : !flow.dispatch.tensor<readonly:tensor<1024x192xi8>>\n          %1 = hal.interface.binding.subspan layout(<bindings = [#hal.pipeline.binding<storage_buffer, \"ReadOnly|Indirect\">, #hal.pipeline.binding<storage_buffer, ReadOnly>, #hal.pipeline.binding<storage_buffer, Indirect>], flags = Indirect>) binding(1) alignment(64) offset(%c0) flags(ReadOnly) : !flow.dispatch.tensor<readonly:tensor<192x768xi8>>\n          %2 = hal.interface.binding.subspan layout(<bindings = [#hal.pipeline.binding<storage_buffer, \"ReadOnly|Indirect\">, #hal.pipeline.binding<storage_buffer, ReadOnly>, #hal.pipeline.binding<storage_buffer, Indirect>], flags = Indirect>) binding(1) alignment(64) offset(%c0) flags(ReadOnly) : !flow.dispatch.tensor<readonly:tensor<768xi32>>\n          %3 = hal.interface.binding.subspan layout(<bindings = [#hal.pipeline.binding<storage_buffer, \"ReadOnly|Indirect\">, #hal.pipeline.binding<storage_buffer, ReadOnly>, #hal.pipeline.binding<storage_buffer, Indirect>], flags = Indirect>) binding(1) alignment(64) offset(%c0) flags(ReadOnly) : !flow.dispatch.tensor<readonly:tensor<768xi32>>\n          %4 = hal.interface.binding.subspan layout(<bindings = [#hal.pipeline.binding<storage_buffer, \"ReadOnly|Indirect\">, #hal.pipeline.binding<storage_buffer, ReadOnly>, #hal.pipeline.binding<storage_buffer, Indirect>], flags = Indirect>) binding(1) alignment(64) offset(%c0) flags(ReadOnly) : !flow.dispatch.tensor<readonly:tensor<768xi8>>\n          %5 = hal.interface.binding.subspan layout(<bindings = [#hal.pipeline.binding<storage_buffer, \"ReadOnly|Indirect\">, #hal.pipeline.binding<storage_buffer, ReadOnly>, #hal.pipeline.binding<storage_buffer, Indirect>], flags = Indirect>) binding(2) alignment(64) offset(%c0) flags(Indirect) : !flow.dispatch.tensor<writeonly:tensor<1024x768xi8>>\n          %6 = flow.dispatch.tensor.load %0, offsets = [0, 0], sizes = [1024, 192], strides = [1, 1] : !flow.dispatch.tensor<readonly:tensor<1024x192xi8>> -> tensor<1024x192xi8>\n          %7 = flow.dispatch.tensor.load %1, offsets = [0, 0], sizes = [192, 768], strides = [1, 1] : !flow.dispatch.tensor<readonly:tensor<192x768xi8>> -> tensor<192x768xi8>\n          %8 = flow.dispatch.tensor.load %2, offsets = [0], sizes = [768], strides = [1] : !flow.dispatch.tensor<readonly:tensor<768xi32>> -> tensor<768xi32>\n          %9 = flow.dispatch.tensor.load %3, offsets = [0], sizes = [768], strides = [1] : !flow.dispatch.tensor<readonly:tensor<768xi32>> -> tensor<768xi32>\n          %10 = flow.dispatch.tensor.load %4, offsets = [0], sizes = [768], strides = [1] : !flow.dispatch.tensor<readonly:tensor<768xi8>> -> tensor<768xi8>\n          %11 = tensor.empty() : tensor<1024x768xi8>\n          %12 = tensor.empty() : tensor<1024x768xi32>\n          %13 = linalg.fill {lowering_config = #iree_codegen.lowering_config<tile_sizes = [[64, 64], [8, 32], [0, 0], [0, 0]]>} ins(%c0_i32 : i32) outs(%12 : tensor<1024x768xi32>) -> tensor<1024x768xi32>\n          %14 = linalg.matmul {lowering_config = #iree_codegen.lowering_config<tile_sizes = [[64, 64, 0], [64, 64, 0], [0, 0, 0], [8, 32, 0], [0, 0, 1], [0, 0, 0]]>} ins(%6, %7 : tensor<1024x192xi8>, tensor<192x768xi8>) outs(%13 : tensor<1024x768xi32>) -> tensor<1024x768xi32>\n          %15 = linalg.generic {indexing_maps = [affine_map<(d0, d1) -> (d0, d1)>, affine_map<(d0, d1) -> (d1)>, affine_map<(d0, d1) -> (d1)>, affine_map<(d0, d1) -> (d1)>, affine_map<(d0, d1) -> (d0, d1)>], iterator_types = [\"parallel\", \"parallel\"]} ins(%14, %8, %9, %10 : tensor<1024x768xi32>, tensor<768xi32>, tensor<768xi32>, tensor<768xi8>) outs(%11 : tensor<1024x768xi8>) attrs =  {lowering_config = #iree_codegen.lowering_config<tile_sizes = [[64, 64], [8, 32], [0, 0], [0, 0]]>} {\n          ^bb0(%in: i32, %in_0: i32, %in_1: i32, %in_2: i8, %out: i8):\n            %16 = arith.addi %in, %in_0 : i32\n            %17 = tosa.apply_scale %16, %in_1, %in_2 {double_round = true} : (i32, i32, i8) -> i32\n            %18 = arith.addi %17, %c-128_i32 : i32\n            %19 = arith.maxsi %18, %c-128_i32 : i32\n            %20 = arith.minsi %19, %c127_i32 : i32\n            %21 = arith.trunci %20 : i32 to i8\n            linalg.yield %21 : i8\n          } -> tensor<1024x768xi8>\n          flow.dispatch.tensor.store %15, %5, offsets = [0, 0], sizes = [1024, 768], strides = [1, 1] : tensor<1024x768xi8> -> !flow.dispatch.tensor<writeonly:tensor<1024x768xi8>>\n          return\n        }\n      }\n    }\n  }\n}\n\"\"\"\n\n\n# =============================================================================\n# Test #2: extract_fused_template — i8 matmul + requantize\n# =============================================================================\n\nclass TestExtractFusedTemplateI8Requant:\n\n    def test_i8_requant_has_placeholders(self):\n        \"\"\"i8 template should have M, N, K, dtype, out_dtype placeholders.\"\"\"\n        analyzer = HighLevelMLIRAnalyzer(metadata_path=\"/nonexistent\")\n        template, _ = analyzer.extract_fused_template(DISPATCH_I8_REQUANT)\n        assert '{M}' in template\n        assert '{N}' in template\n        assert '{K}' in template\n        assert '{dtype}' in template\n        # i8 matmul has different input (i8) and accumulator (i32) dtypes\n        assert '{out_dtype}' in template\n\n    def test_i8_requant_no_concrete_dims(self):\n        \"\"\"Template should not contain original concrete dimensions.\"\"\"\n        analyzer = HighLevelMLIRAnalyzer(metadata_path=\"/nonexistent\")\n        template, _ = analyzer.extract_fused_template(DISPATCH_I8_REQUANT)\n        # M=1024, N=768, K=192\n        assert 'tensor<1024x' not in template\n        assert 'tensor<768x' not in template\n        assert 'x192x' not in template\n\n    def test_i8_requant_three_extra_inputs(self):\n        \"\"\"i8 requant has 3 extra generic inputs: two i32 + one i8, all shape=[N].\"\"\"\n        analyzer = HighLevelMLIRAnalyzer(metadata_path=\"/nonexistent\")\n        _, extra_inputs_spec = analyzer.extract_fused_template(DISPATCH_I8_REQUANT)\n        assert len(extra_inputs_spec) == 3\n        # All map to (d0, d1) -> (d1) meaning shape = [N]\n        assert all('d1' in spec['affine_map'] for spec in extra_inputs_spec)\n        # First two are i32, third is i8\n        assert extra_inputs_spec[0]['dtype'] == 'i32'\n        assert extra_inputs_spec[1]['dtype'] == 'i32'\n        assert extra_inputs_spec[2]['dtype'] == 'i8'\n\n    def test_i8_requant_preserves_generic_body(self):\n        \"\"\"Template should preserve the requantization arithmetic.\"\"\"\n        analyzer = HighLevelMLIRAnalyzer(metadata_path=\"/nonexistent\")\n        template, _ = analyzer.extract_fused_template(DISPATCH_I8_REQUANT)\n        assert 'arith.addi' in template\n        assert 'tosa.apply_scale' in template\n        assert 'arith.maxsi' in template\n        assert 'arith.minsi' in template\n        assert 'arith.trunci' in template\n\n    def test_i8_requant_no_lowering_config(self):\n        \"\"\"Template should have lowering_config stripped.\"\"\"\n        analyzer = HighLevelMLIRAnalyzer(metadata_path=\"/nonexistent\")\n        template, _ = analyzer.extract_fused_template(DISPATCH_I8_REQUANT)\n        assert 'lowering_config' not in template","originalFile":"\"\"\"Unit tests for fused matmul template extraction.\"\"\"\n\nimport pytest\nimport sys\nimport os\n\n# Add script directory to path for imports\nsys.path.insert(0, os.path.join(os.path.dirname(__file__), '..', '..', 'script'))\n\nfrom dataset_generator.mlir_analyzer import HighLevelMLIRAnalyzer\n\n\n@pytest.fixture\ndef analyzer():\n    \"\"\"Create analyzer instance without metadata file dependency.\"\"\"\n    return HighLevelMLIRAnalyzer(metadata_path=\"/nonexistent\")\n\n\n# =============================================================================\n# Test fixtures: real dispatch MLIR excerpts\n# =============================================================================\n\n# DenseNet dispatch_179: FILL -> MATMUL -> GENERIC_P_01_01_addf (f32 bias add)\nDISPATCH_F32_BIAS_ADD = \"\"\"\\\nmodule {\n  hal.executable private @main_dispatch_179 {\n    hal.executable.variant public @static target(<\"llvm-cpu\", \"static\", {}>) {\n      hal.executable.export public @main_dispatch_179_matmul_784x256x512_f32 ordinal(0) layout(#hal.pipeline.layout<bindings = [#hal.pipeline.binding<storage_buffer, \"ReadOnly|Indirect\">, #hal.pipeline.binding<storage_buffer, ReadOnly>, #hal.pipeline.binding<storage_buffer, Indirect>], flags = Indirect>) {\n      ^bb0(%arg0: !hal.device):\n        %x, %y, %z = flow.dispatch.workgroup_count_from_slice\n        hal.return %x, %y, %z : index, index, index\n      }\n      builtin.module {\n        func.func @main_dispatch_179_matmul_784x256x512_f32() attributes {translation_info = #iree_codegen.translation_info<pipeline = CPUDoubleTilingExpert, {enable_loop_peeling}>} {\n          %cst = arith.constant 0.000000e+00 : f32\n          %c0 = arith.constant 0 : index\n          %0 = hal.interface.binding.subspan layout(<bindings = [#hal.pipeline.binding<storage_buffer, \"ReadOnly|Indirect\">, #hal.pipeline.binding<storage_buffer, ReadOnly>, #hal.pipeline.binding<storage_buffer, Indirect>], flags = Indirect>) binding(0) alignment(64) offset(%c0) flags(\"ReadOnly|Indirect\") : !flow.dispatch.tensor<readonly:tensor<784x512xf32>>\n          %1 = hal.interface.binding.subspan layout(<bindings = [#hal.pipeline.binding<storage_buffer, \"ReadOnly|Indirect\">, #hal.pipeline.binding<storage_buffer, ReadOnly>, #hal.pipeline.binding<storage_buffer, Indirect>], flags = Indirect>) binding(1) alignment(64) offset(%c0) flags(ReadOnly) : !flow.dispatch.tensor<readonly:tensor<512x256xf32>>\n          %2 = hal.interface.binding.subspan layout(<bindings = [#hal.pipeline.binding<storage_buffer, \"ReadOnly|Indirect\">, #hal.pipeline.binding<storage_buffer, ReadOnly>, #hal.pipeline.binding<storage_buffer, Indirect>], flags = Indirect>) binding(2) alignment(64) offset(%c0) flags(Indirect) : !flow.dispatch.tensor<writeonly:tensor<784x256xf32>>\n          %3 = flow.dispatch.tensor.load %0, offsets = [0, 0], sizes = [784, 512], strides = [1, 1] : !flow.dispatch.tensor<readonly:tensor<784x512xf32>> -> tensor<784x512xf32>\n          %4 = flow.dispatch.tensor.load %1, offsets = [0, 0], sizes = [512, 256], strides = [1, 1] : !flow.dispatch.tensor<readonly:tensor<512x256xf32>> -> tensor<512x256xf32>\n          %5 = tensor.empty() : tensor<784x256xf32>\n          %6 = linalg.fill {lowering_config = #iree_codegen.lowering_config<tile_sizes = [[56, 64], [7, 64], [0, 0], [0, 0]]>} ins(%cst : f32) outs(%5 : tensor<784x256xf32>) -> tensor<784x256xf32>\n          %7 = linalg.matmul {lowering_config = #iree_codegen.lowering_config<tile_sizes = [[56, 64, 0], [56, 64, 0], [0, 0, 0], [7, 64, 0], [0, 0, 1], [0, 0, 0]]>} ins(%3, %4 : tensor<784x512xf32>, tensor<512x256xf32>) outs(%6 : tensor<784x256xf32>) -> tensor<784x256xf32>\n          %8 = linalg.generic {indexing_maps = [affine_map<(d0, d1) -> (d0, d1)>, affine_map<(d0, d1) -> (d0, d1)>], iterator_types = [\"parallel\", \"parallel\"]} ins(%7 : tensor<784x256xf32>) outs(%5 : tensor<784x256xf32>) attrs =  {lowering_config = #iree_codegen.lowering_config<tile_sizes = [[56, 64], [7, 64], [0, 0], [0, 0]]>} {\n          ^bb0(%in: f32, %out: f32):\n            %9 = arith.addf %in, %cst : f32\n            linalg.yield %9 : f32\n          } -> tensor<784x256xf32>\n          flow.dispatch.tensor.store %8, %2, offsets = [0, 0], sizes = [784, 256], strides = [1, 1] : tensor<784x256xf32> -> !flow.dispatch.tensor<writeonly:tensor<784x256xf32>>\n          return\n        }\n      }\n    }\n  }\n}\n\"\"\"\n\n\n# =============================================================================\n# Test #1: extract_fused_template — f32 matmul + bias add\n# =============================================================================\n\nclass TestExtractFusedTemplate:\n\n    def test_extract_fused_template_returns_template_and_spec(self):\n        \"\"\"extract_fused_template should return (template_str, extra_inputs_spec).\"\"\"\n        analyzer = HighLevelMLIRAnalyzer(metadata_path=\"/nonexistent\")\n        result = analyzer.extract_fused_template(DISPATCH_F32_BIAS_ADD)\n        assert isinstance(result, tuple)\n        assert len(result) == 2\n        template, extra_inputs_spec = result\n        assert isinstance(template, str)\n        assert isinstance(extra_inputs_spec, list)\n\n    def test_f32_bias_add_template_has_placeholders(self):\n        \"\"\"Template should contain {M}, {N}, {K}, {dtype} placeholders.\"\"\"\n        analyzer = HighLevelMLIRAnalyzer(metadata_path=\"/nonexistent\")\n        template, _ = analyzer.extract_fused_template(DISPATCH_F32_BIAS_ADD)\n        assert '{M}' in template\n        assert '{N}' in template\n        assert '{K}' in template\n        assert '{dtype}' in template\n\n    def test_f32_bias_add_template_no_concrete_dims(self):\n        \"\"\"Template should not contain the original concrete dimensions.\"\"\"\n        analyzer = HighLevelMLIRAnalyzer(metadata_path=\"/nonexistent\")\n        template, _ = analyzer.extract_fused_template(DISPATCH_F32_BIAS_ADD)\n        # 784=M, 256=N, 512=K — none should appear in tensor types\n        assert 'tensor<784x' not in template\n        assert 'tensor<512x' not in template\n        assert 'x256x' not in template\n\n    def test_f32_bias_add_template_has_all_ops(self):\n        \"\"\"Template should contain fill, matmul, and generic ops.\"\"\"\n        analyzer = HighLevelMLIRAnalyzer(metadata_path=\"/nonexistent\")\n        template, _ = analyzer.extract_fused_template(DISPATCH_F32_BIAS_ADD)\n        assert 'linalg.fill' in template\n        assert 'linalg.matmul' in template\n        assert 'linalg.generic' in template\n        assert 'linalg.yield' in template\n\n    def test_f32_bias_add_template_no_lowering_config(self):\n        \"\"\"Template should have lowering_config stripped.\"\"\"\n        analyzer = HighLevelMLIRAnalyzer(metadata_path=\"/nonexistent\")\n        template, _ = analyzer.extract_fused_template(DISPATCH_F32_BIAS_ADD)\n        assert 'lowering_config' not in template\n\n    def test_f32_bias_add_no_extra_inputs(self):\n        \"\"\"This dispatch has no extra generic inputs (generic takes only matmul output).\n\n        The generic's indexing_maps are [identity, identity] with ins(%7) — just the\n        matmul result. The %cst used inside the body is a constant, not an extra input.\n        \"\"\"\n        analyzer = HighLevelMLIRAnalyzer(metadata_path=\"/nonexistent\")\n        _, extra_inputs_spec = analyzer.extract_fused_template(DISPATCH_F32_BIAS_ADD)\n        assert len(extra_inputs_spec) == 0\n","structuredPatch":[{"oldStart":115,"oldLines":3,"newStart":115,"newLines":115,"lines":["         analyzer = HighLevelMLIRAnalyzer(metadata_path=\"/nonexistent\")","         _, extra_inputs_spec = analyzer.extract_fused_template(DISPATCH_F32_BIAS_ADD)","         assert len(extra_inputs_spec) == 0","+","+","+# =============================================================================","+# Test fixture: i8 matmul + requantize (DeepLab_int8 dispatch_104)","+# =============================================================================","+","+# FILL -> MATMUL -> GENERIC_P_01_1_1_1_01_addi_addi_maxsi_minsi_trunci","+# M=1024, N=768, K=192, dtype=i8, out_dtype=i32, final_dtype=i8","+# Extra generic inputs: tensor<768xi32>, tensor<768xi32>, tensor<768xi8> (all shape=[N])","+DISPATCH_I8_REQUANT = \"\"\"\\","+module {","+  hal.executable private @main_dispatch_104 {","+    hal.executable.variant public @static target(<\"llvm-cpu\", \"static\", {}>) {","+      hal.executable.export public @main_dispatch_104_matmul_1024x768x192_i8xi8xi32 ordinal(0) layout(#hal.pipeline.layout<bindings = [#hal.pipeline.binding<storage_buffer, \"ReadOnly|Indirect\">, #hal.pipeline.binding<storage_buffer, ReadOnly>, #hal.pipeline.binding<storage_buffer, Indirect>], flags = Indirect>) {","+      ^bb0(%arg0: !hal.device):","+        %x, %y, %z = flow.dispatch.workgroup_count_from_slice","+        hal.return %x, %y, %z : index, index, index","+      }","+      builtin.module {","+        func.func @main_dispatch_104_matmul_1024x768x192_i8xi8xi32() attributes {translation_info = #iree_codegen.translation_info<pipeline = CPUDoubleTilingExpert, {enable_loop_peeling}>} {","+          %c0_i32 = arith.constant 0 : i32","+          %c-128_i32 = arith.constant -128 : i32","+          %c127_i32 = arith.constant 127 : i32","+          %c0 = arith.constant 0 : index","+          %0 = hal.interface.binding.subspan layout(<bindings = [#hal.pipeline.binding<storage_buffer, \"ReadOnly|Indirect\">, #hal.pipeline.binding<storage_buffer, ReadOnly>, #hal.pipeline.binding<storage_buffer, Indirect>], flags = Indirect>) binding(0) alignment(64) offset(%c0) flags(\"ReadOnly|Indirect\") : !flow.dispatch.tensor<readonly:tensor<1024x192xi8>>","+          %1 = hal.interface.binding.subspan layout(<bindings = [#hal.pipeline.binding<storage_buffer, \"ReadOnly|Indirect\">, #hal.pipeline.binding<storage_buffer, ReadOnly>, #hal.pipeline.binding<storage_buffer, Indirect>], flags = Indirect>) binding(1) alignment(64) offset(%c0) flags(ReadOnly) : !flow.dispatch.tensor<readonly:tensor<192x768xi8>>","+          %2 = hal.interface.binding.subspan layout(<bindings = [#hal.pipeline.binding<storage_buffer, \"ReadOnly|Indirect\">, #hal.pipeline.binding<storage_buffer, ReadOnly>, #hal.pipeline.binding<storage_buffer, Indirect>], flags = Indirect>) binding(1) alignment(64) offset(%c0) flags(ReadOnly) : !flow.dispatch.tensor<readonly:tensor<768xi32>>","+          %3 = hal.interface.binding.subspan layout(<bindings = [#hal.pipeline.binding<storage_buffer, \"ReadOnly|Indirect\">, #hal.pipeline.binding<storage_buffer, ReadOnly>, #hal.pipeline.binding<storage_buffer, Indirect>], flags = Indirect>) binding(1) alignment(64) offset(%c0) flags(ReadOnly) : !flow.dispatch.tensor<readonly:tensor<768xi32>>","+          %4 = hal.interface.binding.subspan layout(<bindings = [#hal.pipeline.binding<storage_buffer, \"ReadOnly|Indirect\">, #hal.pipeline.binding<storage_buffer, ReadOnly>, #hal.pipeline.binding<storage_buffer, Indirect>], flags = Indirect>) binding(1) alignment(64) offset(%c0) flags(ReadOnly) : !flow.dispatch.tensor<readonly:tensor<768xi8>>","+          %5 = hal.interface.binding.subspan layout(<bindings = [#hal.pipeline.binding<storage_buffer, \"ReadOnly|Indirect\">, #hal.pipeline.binding<storage_buffer, ReadOnly>, #hal.pipeline.binding<storage_buffer, Indirect>], flags = Indirect>) binding(2) alignment(64) offset(%c0) flags(Indirect) : !flow.dispatch.tensor<writeonly:tensor<1024x768xi8>>","+          %6 = flow.dispatch.tensor.load %0, offsets = [0, 0], sizes = [1024, 192], strides = [1, 1] : !flow.dispatch.tensor<readonly:tensor<1024x192xi8>> -> tensor<1024x192xi8>","+          %7 = flow.dispatch.tensor.load %1, offsets = [0, 0], sizes = [192, 768], strides = [1, 1] : !flow.dispatch.tensor<readonly:tensor<192x768xi8>> -> tensor<192x768xi8>","+          %8 = flow.dispatch.tensor.load %2, offsets = [0], sizes = [768], strides = [1] : !flow.dispatch.tensor<readonly:tensor<768xi32>> -> tensor<768xi32>","+          %9 = flow.dispatch.tensor.load %3, offsets = [0], sizes = [768], strides = [1] : !flow.dispatch.tensor<readonly:tensor<768xi32>> -> tensor<768xi32>","+          %10 = flow.dispatch.tensor.load %4, offsets = [0], sizes = [768], strides = [1] : !flow.dispatch.tensor<readonly:tensor<768xi8>> -> tensor<768xi8>","+          %11 = tensor.empty() : tensor<1024x768xi8>","+          %12 = tensor.empty() : tensor<1024x768xi32>","+          %13 = linalg.fill {lowering_config = #iree_codegen.lowering_config<tile_sizes = [[64, 64], [8, 32], [0, 0], [0, 0]]>} ins(%c0_i32 : i32) outs(%12 : tensor<1024x768xi32>) -> tensor<1024x768xi32>","+          %14 = linalg.matmul {lowering_config = #iree_codegen.lowering_config<tile_sizes = [[64, 64, 0], [64, 64, 0], [0, 0, 0], [8, 32, 0], [0, 0, 1], [0, 0, 0]]>} ins(%6, %7 : tensor<1024x192xi8>, tensor<192x768xi8>) outs(%13 : tensor<1024x768xi32>) -> tensor<1024x768xi32>","+          %15 = linalg.generic {indexing_maps = [affine_map<(d0, d1) -> (d0, d1)>, affine_map<(d0, d1) -> (d1)>, affine_map<(d0, d1) -> (d1)>, affine_map<(d0, d1) -> (d1)>, affine_map<(d0, d1) -> (d0, d1)>], iterator_types = [\"parallel\", \"parallel\"]} ins(%14, %8, %9, %10 : tensor<1024x768xi32>, tensor<768xi32>, tensor<768xi32>, tensor<768xi8>) outs(%11 : tensor<1024x768xi8>) attrs =  {lowering_config = #iree_codegen.lowering_config<tile_sizes = [[64, 64], [8, 32], [0, 0], [0, 0]]>} {","+          ^bb0(%in: i32, %in_0: i32, %in_1: i32, %in_2: i8, %out: i8):","+            %16 = arith.addi %in, %in_0 : i32","+            %17 = tosa.apply_scale %16, %in_1, %in_2 {double_round = true} : (i32, i32, i8) -> i32","+            %18 = arith.addi %17, %c-128_i32 : i32","+            %19 = arith.maxsi %18, %c-128_i32 : i32","+            %20 = arith.minsi %19, %c127_i32 : i32","+            %21 = arith.trunci %20 : i32 to i8","+            linalg.yield %21 : i8","+          } -> tensor<1024x768xi8>","+          flow.dispatch.tensor.store %15, %5, offsets = [0, 0], sizes = [1024, 768], strides = [1, 1] : tensor<1024x768xi8> -> !flow.dispatch.tensor<writeonly:tensor<1024x768xi8>>","+          return","+        }","+      }","+    }","+  }","+}","+\"\"\"","+","+","+# =============================================================================","+# Test #2: extract_fused_template — i8 matmul + requantize","+# =============================================================================","+","+class TestExtractFusedTemplateI8Requant:","+","+    def test_i8_requant_has_placeholders(self):","+        \"\"\"i8 template should have M, N, K, dtype, out_dtype placeholders.\"\"\"","+        analyzer = HighLevelMLIRAnalyzer(metadata_path=\"/nonexistent\")","+        template, _ = analyzer.extract_fused_template(DISPATCH_I8_REQUANT)","+        assert '{M}' in template","+        assert '{N}' in template","+        assert '{K}' in template","+        assert '{dtype}' in template","+        # i8 matmul has different input (i8) and accumulator (i32) dtypes","+        assert '{out_dtype}' in template","+","+    def test_i8_requant_no_concrete_dims(self):","+        \"\"\"Template should not contain original concrete dimensions.\"\"\"","+        analyzer = HighLevelMLIRAnalyzer(metadata_path=\"/nonexistent\")","+        template, _ = analyzer.extract_fused_template(DISPATCH_I8_REQUANT)","+        # M=1024, N=768, K=192","+        assert 'tensor<1024x' not in template","+        assert 'tensor<768x' not in template","+        assert 'x192x' not in template","+","+    def test_i8_requant_three_extra_inputs(self):","+        \"\"\"i8 requant has 3 extra generic inputs: two i32 + one i8, all shape=[N].\"\"\"","+        analyzer = HighLevelMLIRAnalyzer(metadata_path=\"/nonexistent\")","+        _, extra_inputs_spec = analyzer.extract_fused_template(DISPATCH_I8_REQUANT)","+        assert len(extra_inputs_spec) == 3","+        # All map to (d0, d1) -> (d1) meaning shape = [N]","+        assert all('d1' in spec['affine_map'] for spec in extra_inputs_spec)","+        # First two are i32, third is i8","+        assert extra_inputs_spec[0]['dtype'] == 'i32'","+        assert extra_inputs_spec[1]['dtype'] == 'i32'","+        assert extra_inputs_spec[2]['dtype'] == 'i8'","+","+    def test_i8_requant_preserves_generic_body(self):","+        \"\"\"Template should preserve the requantization arithmetic.\"\"\"","+        analyzer = HighLevelMLIRAnalyzer(metadata_path=\"/nonexistent\")","+        template, _ = analyzer.extract_fused_template(DISPATCH_I8_REQUANT)","+        assert 'arith.addi' in template","+        assert 'tosa.apply_scale' in template","+        assert 'arith.maxsi' in template","+        assert 'arith.minsi' in template","+        assert 'arith.trunci' in template","+","+    def test_i8_requant_no_lowering_config(self):","+        \"\"\"Template should have lowering_config stripped.\"\"\"","+        analyzer = HighLevelMLIRAnalyzer(metadata_path=\"/nonexistent\")","+        template, _ = analyzer.extract_fused_template(DISPATCH_I8_REQUANT)","+        assert 'lowering_config' not in template"]}],"userModified":false,"replaceAll":false},"sourceToolAssistantUUID":"d6aa9544-c3b3-46d4-be56-4b5070b61bbd"}
{"parentUuid":"bd1ae5ff-0647-42a9-911b-b31fad7a540b","isSidechain":true,"userType":"external","cwd":"/local/nick/ai_iree","sessionId":"cced7497-38e4-4d40-8402-805242627854","version":"2.1.44","gitBranch":"master","agentId":"acompact-7637a7","slug":"purrfect-floating-lobster","type":"user","message":{"role":"user","content":"Your task is to create a detailed summary of the conversation so far, paying close attention to the user's explicit requests and your previous actions.\nThis summary should be thorough in capturing technical details, code patterns, and architectural decisions that would be essential for continuing development work without losing context.\n\nBefore providing your final summary, wrap your analysis in <analysis> tags to organize your thoughts and ensure you've covered all necessary points. In your analysis process:\n\n1. Chronologically analyze each message and section of the conversation. For each section thoroughly identify:\n   - The user's explicit requests and intents\n   - Your approach to addressing the user's requests\n   - Key decisions, technical concepts and code patterns\n   - Specific details like:\n     - file names\n     - full code snippets\n     - function signatures\n     - file edits\n  - Errors that you ran into and how you fixed them\n  - Pay special attention to specific user feedback that you received, especially if the user told you to do something differently.\n2. Double-check for technical accuracy and completeness, addressing each required element thoroughly.\n\nYour summary should include the following sections:\n\n1. Primary Request and Intent: Capture all of the user's explicit requests and intents in detail\n2. Key Technical Concepts: List all important technical concepts, technologies, and frameworks discussed.\n3. Files and Code Sections: Enumerate specific files and code sections examined, modified, or created. Pay special attention to the most recent messages and include full code snippets where applicable and include a summary of why this file read or edit is important.\n4. Errors and fixes: List all errors that you ran into, and how you fixed them. Pay special attention to specific user feedback that you received, especially if the user told you to do something differently.\n5. Problem Solving: Document problems solved and any ongoing troubleshooting efforts.\n6. All user messages: List ALL user messages that are not tool results. These are critical for understanding the users' feedback and changing intent.\n6. Pending Tasks: Outline any pending tasks that you have explicitly been asked to work on.\n7. Current Work: Describe in detail precisely what was being worked on immediately before this summary request, paying special attention to the most recent messages from both user and assistant. Include file names and code snippets where applicable.\n8. Optional Next Step: List the next step that you will take that is related to the most recent work you were doing. IMPORTANT: ensure that this step is DIRECTLY in line with the user's most recent explicit requests, and the task you were working on immediately before this summary request. If your last task was concluded, then only list next steps if they are explicitly in line with the users request. Do not start on tangential requests or really old requests that were already completed without confirming with the user first.\n                       If there is a next step, include direct quotes from the most recent conversation showing exactly what task you were working on and where you left off. This should be verbatim to ensure there's no drift in task interpretation.\n\nHere's an example of how your output should be structured:\n\n<example>\n<analysis>\n[Your thought process, ensuring all points are covered thoroughly and accurately]\n</analysis>\n\n<summary>\n1. Primary Request and Intent:\n   [Detailed description]\n\n2. Key Technical Concepts:\n   - [Concept 1]\n   - [Concept 2]\n   - [...]\n\n3. Files and Code Sections:\n   - [File Name 1]\n      - [Summary of why this file is important]\n      - [Summary of the changes made to this file, if any]\n      - [Important Code Snippet]\n   - [File Name 2]\n      - [Important Code Snippet]\n   - [...]\n\n4. Errors and fixes:\n    - [Detailed description of error 1]:\n      - [How you fixed the error]\n      - [User feedback on the error if any]\n    - [...]\n\n5. Problem Solving:\n   [Description of solved problems and ongoing troubleshooting]\n\n6. All user messages: \n    - [Detailed non tool use user message]\n    - [...]\n\n7. Pending Tasks:\n   - [Task 1]\n   - [Task 2]\n   - [...]\n\n8. Current Work:\n   [Precise description of current work]\n\n9. Optional Next Step:\n   [Optional Next step to take]\n\n</summary>\n</example>\n\nPlease provide your summary based on the conversation so far, following this structure and ensuring precision and thoroughness in your response. \n\nThere may be additional summarization instructions provided in the included context. If so, remember to follow these instructions when creating the above summary. Examples of instructions include:\n<example>\n## Compact Instructions\nWhen summarizing the conversation focus on typescript code changes and also remember the mistakes you made and how you fixed them.\n</example>\n\n<example>\n# Summary instructions\nWhen you are using compact - please focus on test output and code changes. Include file reads verbatim.\n</example>\n\n\nIMPORTANT: Do NOT use any tools. You MUST respond with ONLY the <summary>...</summary> block as your text output."},"uuid":"d0620fd9-8b66-42ae-803d-68504e6ed727","timestamp":"2026-02-17T06:05:06.234Z"}
{"parentUuid":"d0620fd9-8b66-42ae-803d-68504e6ed727","isSidechain":true,"userType":"external","cwd":"/local/nick/ai_iree","sessionId":"cced7497-38e4-4d40-8402-805242627854","version":"2.1.44","gitBranch":"master","agentId":"acompact-7637a7","slug":"purrfect-floating-lobster","message":{"model":"claude-opus-4-6","id":"msg_01Tn8w6t8vF3kXthv5HXB6Ap","type":"message","role":"assistant","content":[{"type":"text","text":"\n\n<analysis>\nLet me chronologically analyze the conversation:\n\n1. User asked about fingerprints.json patterns where linalg.matmul fuses with other ops\n2. I explored the fingerprints.json file and found 68 unique matmul patterns, 66 of which are fused\n3. User asked how to do data augmentation for fused matmul ops\n4. I explored the existing augmentation pipeline (augmentor.py, mlir_generator.py, search_space.py, mlir_analyzer.py, etc.)\n5. I provided analysis showing that fused op shapes are determined by matmul M,N,K dims\n6. User said \"ok let's plan the implementation\" - entered plan mode\n7. I launched explore agents to understand mlir_analyzer.py, mlir_generator.py, and pipeline phases\n8. I launched a Plan agent to design the implementation\n9. User was asked about scope (how many fused patterns per shape) - selected \"Top-N most common\" initially\n10. User clarified: \"same as our current strategy. put all of existing patterns into test set, then 8:1:1 ratio for train and val dataset\"\n11. User further clarified: \"we keep single op MLIR files, but now add fused MLIR files. So we use single op to train MLP atomic and use fused op to train GCN. We use the same shape augmentation as the single op done but just add fused op since you said the following op's shape depends on the major op (matmul).\"\n12. I confirmed understanding and user said \"yes, proceed with the implementation\"\n13. I wrote plan file at /home/nick/.claude/plans/purrfect-floating-lobster.md\n14. I created 7 tasks with dependencies\n15. Started TDD implementation - wrote test file, implemented extract_fused_template()\n16. All 911 tests pass (905 existing + 6 new)\n17. Added i8 requant test cases but haven't run them yet\n\nKey design decisions:\n- New `fused_ops` section in patterns.json (alongside named_ops, generic_ops)\n- Shape augmentation is SHARED between standalone and fused - one set of augmented shapes\n- Standalone matmul MLIR → train MLP atomic\n- Fused matmul MLIR → train GCN\n- Template extraction: whole-kernel-region approach (Option A)\n- Each fused fingerprint treated as its own entry with template + extra_inputs_spec\n\nImportant files modified/created:\n- /local/nick/ai_iree/script/dataset_generator/mlir_analyzer.py - added extract_fused_template()\n- /local/nick/ai_iree/tests/script/test_fused_template.py - new test file\n\nThe most recent work was adding i8 requant test cases to the test file but not yet running them.\n</analysis>\n\n<summary>\n1. Primary Request and Intent:\n   The user wants to generate MLIR files for fused matmul patterns (matmul + post-processing generic ops like bias-add, requantization, sigmoid). Currently, 97.7% of matmul dispatches (717/734) in the dataset are fused, but the pipeline only generates standalone matmul MLIR. The user wants:\n   - Keep existing single-op MLIR files (for training MLP atomic)\n   - Add fused MLIR files (for training GCN that models op interactions when fused)\n   - Use the SAME shape augmentation as single op (shared M,N,K shapes) since fused generic op shapes depend on the matmul\n   - All 65 unique fused fingerprints get templates, same 8:1:1 augmentation strategy\n\n2. Key Technical Concepts:\n   - **Fused dispatch patterns**: `LINALG.FILL -> LINALG.MATMUL -> GENERIC_P_*` where the generic op performs post-processing (bias-add, requantization, sigmoid/SiLU, etc.)\n   - **65 unique fused fingerprints** found in dataset0217/files/fingerprints.json across models\n   - **Shape determination**: Fused generic op's shapes are fully determined by matmul's M, N, K dims. Extra inputs (bias, scale, zero-point) are 1D vectors of size M or N, derived from affine indexing maps.\n   - **Two training targets**: MLP atomic (standalone matmul data) and GCN (fused op data)\n   - **Whole-kernel-region template approach (Option A)**: Extract entire fill+matmul+generic from representative dispatch, parameterize with {M}, {N}, {K}, {dtype}, {out_dtype} placeholders\n   - **New `fused_ops` section** in patterns.json alongside `named_ops` and `generic_ops`\n   - **TDD methodology**: Red → Green → Refactor, per TDD.md and CLAUDE.md\n   - **IREE MLIR compilation pipeline**: CPUDoubleTilingExpert, 6-level tiling for matmul\n   - **Tile configs shared**: Fused ops use same search space as standalone matmul since lowering_config only goes on the matmul op\n\n3. Files and Code Sections:\n   - **`/local/nick/ai_iree/dataset0217/files/fingerprints.json`** (read-only)\n     - Contains all model dispatches grouped by model name, each with fingerprint, dispatch_file\n     - 65 unique fused matmul fingerprints, 717 fused matmul dispatches total\n   \n   - **`/local/nick/ai_iree/script/dataset_generator/mlir_analyzer.py`** (MODIFIED)\n     - Core class `HighLevelMLIRAnalyzer` that extracts fingerprints and templates\n     - Added `extract_fused_template()` method after line 250 (after `extract_fingerprint`)\n     - Key implementation:\n     ```python\n     def extract_fused_template(\n         self, mlir_text: str\n     ) -> Tuple[str, List[Dict[str, str]]]:\n         \"\"\"Extract a parameterized fused template from a dispatch MLIR file.\"\"\"\n         func_body = self._extract_computation_region(mlir_text)\n         if not func_body:\n             return \"\", []\n         # Step 1: Find linalg.matmul and extract M, K, N, dtype, out_dtype\n         matmul_match = re.search(\n             r'linalg\\.matmul\\s*'\n             r'(?:\\{[^}]*\\}\\s*)?'\n             r'ins\\(([^:]+):\\s*tensor<(\\d+)x(\\d+)x(\\w+)>\\s*,\\s*tensor<\\d+x(\\d+)x\\w+>\\s*\\)\\s*'\n             r'outs\\([^:]+:\\s*tensor<\\d+x\\d+x(\\w+)>\\s*\\)',\n             func_body,\n         )\n         # ... extracts M, K, dtype, N, out_dtype\n         # Step 2: Extract kernel lines (tensor.empty through generic close)\n         # Step 3: Parse linalg.generic to find extra inputs via affine maps\n         # Step 4: Parameterize dimensions in tensor<...> types\n         # Step 5: Strip lowering_config attributes\n         return template, extra_inputs_spec\n     ```\n   \n   - **`/local/nick/ai_iree/tests/script/test_fused_template.py`** (CREATED)\n     - New test file with two test fixtures (DISPATCH_F32_BIAS_ADD, DISPATCH_I8_REQUANT)\n     - `TestExtractFusedTemplate` class: 6 tests for f32 bias-add case (all passing)\n     - `TestExtractFusedTemplateI8Requant` class: 5 tests for i8 requant case (just added, not yet run)\n     - Tests verify: placeholders present, no concrete dims, all ops present, no lowering_config, correct extra_inputs_spec\n   \n   - **`/local/nick/ai_iree/script/dataset_generator/augmentor.py`** (read-only)\n     - Existing matmul shape augmentation: log-normal sampling centered at 8MB L2 cache\n     - `MatMulShape(M, N, K, dtype)` dataclass, `generate_dataset()` for 8:1:1 splits\n     - NO changes needed - shapes are shared between standalone and fused\n   \n   - **`/local/nick/ai_iree/script/dataset_generator/compiler.py`** (read-only, planned for modification)\n     - `generate_all_mlir_files()` iterates `named_ops` and `generic_ops`\n     - `_generate_one_mlir()` inner function: build_placeholder_map → instantiate_template → rebuild_operation_general → wrap_operation_in_module\n     - Will need third iteration section for `fused_ops`\n   \n   - **`/local/nick/ai_iree/script/dataset_generator/mlir_generator.py`** (read-only, planned for modification)\n     - `build_placeholder_map()`, `instantiate_template()`, `wrap_operation_in_module()`\n     - Will need new `wrap_fused_template_in_module()` function\n   \n   - **`/local/nick/ai_iree/script/dataset_generator/shape_source.py`** (read-only, planned for modification)\n     - `build_stats_from_shape_source()` reconstructs stats dict from shape file + patterns.json\n     - Will need to also populate `fused_ops` from patterns.json\n   \n   - **`/local/nick/ai_iree/script/dataset_generator/cli/stats_filters.py`** (read-only, planned for modification)\n     - `filter_stats_by_op()`, `filter_stats_by_type()`, `assign_pattern_ids()`, `save_patterns_json()`\n     - All need to handle new `fused_ops` section\n   \n   - **`/home/nick/.claude/plans/purrfect-floating-lobster.md`** (plan file)\n     - Implementation plan with 8 steps, schema design, file modification list\n   \n   - **Real dispatch MLIR files examined**:\n     - `models/DenseNet/densenet/benchmarks/module_main_dispatch_179_static_benchmark.mlir` - f32 matmul + bias add\n     - `models/DeepLab_int8/deeplab-edgetpu-argmax-m/benchmarks/module_main_dispatch_104_static_benchmark.mlir` - i8 matmul + requant (3 extra inputs: i32, i32, i8)\n     - `models/Mobile_Vit/Mobile_Vit/benchmarks/module_main_dispatch_10_static_benchmark.mlir` - f32 matmul + bias + SiLU\n     - `models/MobileBert_int8/mobilebert/benchmarks/module_main_dispatch_1004_static_benchmark.mlir` - i8 matmul + requant with mixed dim sources\n\n4. Errors and fixes:\n   - **`AttributeError: 'str' object has no attribute 'get'`**: When first trying to parse fingerprints.json, assumed it was a list but it's a dict keyed by model name. Fixed by iterating `data.items()`.\n   - **Test initialization**: Initially used `HighLevelMLIRAnalyzer.__new__(HighLevelMLIRAnalyzer)` which skips `__init__` and leaves `compiled_patterns` uninitialized. Fixed by using `HighLevelMLIRAnalyzer(metadata_path=\"/nonexistent\")` which gracefully handles missing metadata.\n   - **User feedback on scope question**: User rejected the \"Top-N most common\" answer and clarified that ALL patterns should be included, using the same 8:1:1 strategy as standalone matmul. User specifically corrected: \"same as our current strategy. put all of existing patterns into test set, then 8:1:1 ratio for train and val dataset.\"\n   - **User feedback on architecture**: User clarified the two-target training approach: \"we keep single op MLIR files, but now add fused MLIR files. So we use single op to train MLP atomic and use fused op to train GCN.\"\n\n5. Problem Solving:\n   - Determined that shape augmentation doesn't need to change (fused op shapes derived from matmul M,N,K)\n   - Chose whole-kernel-region template approach over decomposed composition approach to avoid SSA threading complexity\n   - Designed `extra_inputs_spec` to capture affine map and dtype for each extra generic input\n   - Successfully implemented `extract_fused_template()` that handles f32 case (6 passing tests)\n   - Added i8 requant test cases (5 tests, not yet run)\n\n6. All user messages:\n   - \"dataset0217/files/fingerprints.json tell me the pattern that linalg.matmul op fuses with other computation op\"\n   - \"good. Now, I would like to generate MLIR files with those patterns. We already have matmul augmentation for single matmul op. Tell me how to do data augmentation for multiple op (focus on matmul + fused ops now)\"\n   - \"ok let's plan the implementation\"\n   - \"ask me again\" (after interrupted question)\n   - \"same as our current strategy. put all of existing patterns into test set, then 8:1:1 ratio for train and val dataset. understand?\"\n   - \"no ~ the last question   how many fused patterns per shape?\"\n   - \"ask me your question again\" (after rejected question)\n   - (Clarified the scope question - rejected, wanted to provide additional context)\n   - \"we keep single op MLIR files, but now add fused MLIR files. So we use single op to train MLP atomic and use fused op to train GCN. We use the same shape agumentation as the single op done but just add fused op since you said the following op's shape depends on the major op (matmul). show me your understanding\"\n   - \"yes, proceed with the implementation\"\n   - \"Your task is to create a detailed summary...\" (current message)\n\n7. Pending Tasks (from TaskList):\n   - **#1 [completed]**: Extract kernel region helper in mlir_analyzer.py\n   - **#2 [in_progress]**: Implement extract_fused_template() in mlir_analyzer.py - f32 case done (6 tests pass), i8 requant tests just added but NOT YET RUN\n   - **#3 [pending, blocked by #2]**: Populate fused_ops in collect_operation_statistics()\n   - **#4 [pending, blocked by #3]**: Update stats_filters.py for fused_ops\n   - **#5 [pending, blocked by #2]**: Implement wrap_fused_template_in_module() in mlir_generator.py\n   - **#6 [pending, blocked by #4, #5]**: Handle fused_ops in generate_all_mlir_files()\n   - **#7 [pending, blocked by #6]**: End-to-end integration test\n\n8. Current Work:\n   Working on Task #2 (extract_fused_template). The f32 bias-add case is complete and passing (6 tests). I just added 5 new test cases for the i8 requant pattern (`TestExtractFusedTemplateI8Requant`) to `tests/script/test_fused_template.py` but have NOT yet run them. These tests verify:\n   - `test_i8_requant_has_placeholders` - {M}, {N}, {K}, {dtype}, {out_dtype}\n   - `test_i8_requant_no_concrete_dims` - no M=1024, N=768, K=192\n   - `test_i8_requant_three_extra_inputs` - 3 extra inputs (i32, i32, i8) all shape=[N]\n   - `test_i8_requant_preserves_generic_body` - arith.addi, tosa.apply_scale, etc.\n   - `test_i8_requant_no_lowering_config`\n\n   Current test status: 911 passed (905 existing + 6 new f32 tests). The i8 tests are written but not executed.\n\n9. Optional Next Step:\n   Run the newly added i8 requant tests with `pytest tests/script/test_fused_template.py -x -v` to see if they pass (GREEN) or need implementation fixes (RED→GREEN cycle). This is directly continuing the TDD work on Task #2.\n\n   The last action was editing the test file to add `DISPATCH_I8_REQUANT` fixture and `TestExtractFusedTemplateI8Requant` class. The user's last explicit request before the summary was \"yes, proceed with the implementation.\"\n</summary>"}],"stop_reason":null,"stop_sequence":null,"usage":{"input_tokens":3,"cache_creation_input_tokens":4543,"cache_read_input_tokens":164342,"cache_creation":{"ephemeral_5m_input_tokens":0,"ephemeral_1h_input_tokens":4543},"output_tokens":6,"service_tier":"standard","inference_geo":"not_available"}},"requestId":"req_011CYD8uzyvVikCrCCxatTPQ","type":"assistant","uuid":"13a2e705-b281-4e05-854e-c4388b3bff2d","timestamp":"2026-02-17T06:06:28.747Z"}
