{"parentUuid":null,"isSidechain":true,"userType":"external","cwd":"/local/nick/ai_iree","sessionId":"333d55b1-c32e-4aaa-b8da-adab81bfbb07","version":"2.1.44","gitBranch":"master","agentId":"ac793d5","slug":"purrfect-floating-lobster","type":"user","message":{"role":"user","content":"I need to understand why 6 fused templates are broken. Look at the generated MLIR files for these 6 fingerprints in dataset0211/test/MLIR-files/matmul_fused/ and try to compile one file from each to see the actual error.\n\nThe 6 broken fingerprints are:\n- b860513012d2a09f\n- 9ced5f4f4757a93c  \n- f36900f42a306536\n- 146b004d0242a3f3\n- 1f6d41e51c594331\n- 9aefcc246f22dc94\n\nFor each one:\n1. Find one MLIR file: `ls dataset0211/test/MLIR-files/matmul_fused/ | grep <fingerprint> | head -1`\n2. Show the first 5 lines and the func.func signature line\n3. Try to compile it: `/local/nick/iree-linux/iree-build/tools/iree-compile --iree-hal-target-backends=llvm-cpu --iree-llvmcpu-target-triple=riscv32-pc-linux-elf --iree-llvmcpu-target-cpu=generic-rv32 --iree-llvmcpu-target-cpu-features=+m,+f,+d,+zvl1024b,+zve32x,+zve32f,+zve64x,+zve64f,+zve64d <file> -o /dev/null 2>&1 | head -5`\n\nReport the error for each fingerprint concisely."},"uuid":"d7aedda2-d507-41f6-a062-1a302a93d9aa","timestamp":"2026-02-21T07:03:04.793Z"}
{"parentUuid":"d7aedda2-d507-41f6-a062-1a302a93d9aa","isSidechain":true,"userType":"external","cwd":"/local/nick/ai_iree","sessionId":"333d55b1-c32e-4aaa-b8da-adab81bfbb07","version":"2.1.44","gitBranch":"master","agentId":"ac793d5","slug":"purrfect-floating-lobster","message":{"model":"claude-opus-4-6","id":"msg_01J8UnRFT3y2FZ5FARn7LK3C","type":"message","role":"assistant","content":[{"type":"text","text":"\n\nI'll find one MLIR file for each fingerprint and examine them in parallel."}],"stop_reason":null,"stop_sequence":null,"usage":{"input_tokens":3,"cache_creation_input_tokens":10681,"cache_read_input_tokens":0,"cache_creation":{"ephemeral_5m_input_tokens":0,"ephemeral_1h_input_tokens":10681},"output_tokens":2,"service_tier":"standard","inference_geo":"not_available"}},"requestId":"req_011CYLna5WBSw6zvx5Bv91np","type":"assistant","uuid":"f9e4fe98-fd42-498f-865b-b31b6ea714b0","timestamp":"2026-02-21T07:03:07.001Z"}
{"parentUuid":"f9e4fe98-fd42-498f-865b-b31b6ea714b0","isSidechain":true,"userType":"external","cwd":"/local/nick/ai_iree","sessionId":"333d55b1-c32e-4aaa-b8da-adab81bfbb07","version":"2.1.44","gitBranch":"master","agentId":"ac793d5","slug":"purrfect-floating-lobster","message":{"model":"claude-opus-4-6","id":"msg_01J8UnRFT3y2FZ5FARn7LK3C","type":"message","role":"assistant","content":[{"type":"tool_use","id":"toolu_01NHuomh2kNixdh7FJcKmyr7","name":"Bash","input":{"command":"ls /local/nick/ai_iree/dataset0211/test/MLIR-files/matmul_fused/ | grep b860513012d2a09f | head -1","description":"Find one MLIR file for fingerprint b860513012d2a09f"},"caller":{"type":"direct"}}],"stop_reason":null,"stop_sequence":null,"usage":{"input_tokens":3,"cache_creation_input_tokens":10681,"cache_read_input_tokens":0,"cache_creation":{"ephemeral_5m_input_tokens":0,"ephemeral_1h_input_tokens":10681},"output_tokens":2,"service_tier":"standard","inference_geo":"not_available"}},"requestId":"req_011CYLna5WBSw6zvx5Bv91np","type":"assistant","uuid":"ca58f34c-da1d-4d65-a5f1-c0d303349b55","timestamp":"2026-02-21T07:03:08.300Z"}
{"parentUuid":"ca58f34c-da1d-4d65-a5f1-c0d303349b55","isSidechain":true,"userType":"external","cwd":"/local/nick/ai_iree","sessionId":"333d55b1-c32e-4aaa-b8da-adab81bfbb07","version":"2.1.44","gitBranch":"master","agentId":"ac793d5","slug":"purrfect-floating-lobster","type":"user","message":{"role":"user","content":[{"tool_use_id":"toolu_01NHuomh2kNixdh7FJcKmyr7","type":"tool_result","content":"b860513012d2a09f_0_0.mlir\nstty: 'standard input': Inappropriate ioctl for device","is_error":false}]},"uuid":"35b82369-61ba-4eb2-a070-d1675cf8ac90","timestamp":"2026-02-21T07:03:08.599Z","sourceToolAssistantUUID":"ca58f34c-da1d-4d65-a5f1-c0d303349b55"}
{"parentUuid":"35b82369-61ba-4eb2-a070-d1675cf8ac90","isSidechain":true,"userType":"external","cwd":"/local/nick/ai_iree","sessionId":"333d55b1-c32e-4aaa-b8da-adab81bfbb07","version":"2.1.44","gitBranch":"master","agentId":"ac793d5","slug":"purrfect-floating-lobster","message":{"model":"claude-opus-4-6","id":"msg_01J8UnRFT3y2FZ5FARn7LK3C","type":"message","role":"assistant","content":[{"type":"tool_use","id":"toolu_01EumA3h27FANzTGxHWctNVV","name":"Bash","input":{"command":"ls /local/nick/ai_iree/dataset0211/test/MLIR-files/matmul_fused/ | grep 9ced5f4f4757a93c | head -1","description":"Find one MLIR file for fingerprint 9ced5f4f4757a93c"},"caller":{"type":"direct"}}],"stop_reason":null,"stop_sequence":null,"usage":{"input_tokens":3,"cache_creation_input_tokens":10681,"cache_read_input_tokens":0,"cache_creation":{"ephemeral_5m_input_tokens":0,"ephemeral_1h_input_tokens":10681},"output_tokens":2,"service_tier":"standard","inference_geo":"not_available"}},"requestId":"req_011CYLna5WBSw6zvx5Bv91np","type":"assistant","uuid":"da34d1bd-0a80-4292-8863-d7742dbb8588","timestamp":"2026-02-21T07:03:09.139Z"}
{"parentUuid":"da34d1bd-0a80-4292-8863-d7742dbb8588","isSidechain":true,"userType":"external","cwd":"/local/nick/ai_iree","sessionId":"333d55b1-c32e-4aaa-b8da-adab81bfbb07","version":"2.1.44","gitBranch":"master","agentId":"ac793d5","slug":"purrfect-floating-lobster","type":"user","message":{"role":"user","content":[{"tool_use_id":"toolu_01EumA3h27FANzTGxHWctNVV","type":"tool_result","content":"9ced5f4f4757a93c_0_0.mlir\nstty: 'standard input': Inappropriate ioctl for device","is_error":false}]},"uuid":"fbbe5efb-6580-450b-b4d6-3a03bf7b2931","timestamp":"2026-02-21T07:03:09.440Z","sourceToolAssistantUUID":"da34d1bd-0a80-4292-8863-d7742dbb8588"}
{"parentUuid":"fbbe5efb-6580-450b-b4d6-3a03bf7b2931","isSidechain":true,"userType":"external","cwd":"/local/nick/ai_iree","sessionId":"333d55b1-c32e-4aaa-b8da-adab81bfbb07","version":"2.1.44","gitBranch":"master","agentId":"ac793d5","slug":"purrfect-floating-lobster","message":{"model":"claude-opus-4-6","id":"msg_01J8UnRFT3y2FZ5FARn7LK3C","type":"message","role":"assistant","content":[{"type":"tool_use","id":"toolu_01TreeEwSpvwJddw7wtmxxxF","name":"Bash","input":{"command":"ls /local/nick/ai_iree/dataset0211/test/MLIR-files/matmul_fused/ | grep f36900f42a306536 | head -1","description":"Find one MLIR file for fingerprint f36900f42a306536"},"caller":{"type":"direct"}}],"stop_reason":null,"stop_sequence":null,"usage":{"input_tokens":3,"cache_creation_input_tokens":10681,"cache_read_input_tokens":0,"cache_creation":{"ephemeral_5m_input_tokens":0,"ephemeral_1h_input_tokens":10681},"output_tokens":2,"service_tier":"standard","inference_geo":"not_available"}},"requestId":"req_011CYLna5WBSw6zvx5Bv91np","type":"assistant","uuid":"c6e280b6-ecba-4259-a748-a720e399b35b","timestamp":"2026-02-21T07:03:09.912Z"}
{"parentUuid":"c6e280b6-ecba-4259-a748-a720e399b35b","isSidechain":true,"userType":"external","cwd":"/local/nick/ai_iree","sessionId":"333d55b1-c32e-4aaa-b8da-adab81bfbb07","version":"2.1.44","gitBranch":"master","agentId":"ac793d5","slug":"purrfect-floating-lobster","type":"user","message":{"role":"user","content":[{"tool_use_id":"toolu_01TreeEwSpvwJddw7wtmxxxF","type":"tool_result","content":"f36900f42a306536_0_0.mlir\nstty: 'standard input': Inappropriate ioctl for device","is_error":false}]},"uuid":"a92c3265-1519-42c0-9e2d-fccaf0f44f28","timestamp":"2026-02-21T07:03:10.220Z","sourceToolAssistantUUID":"c6e280b6-ecba-4259-a748-a720e399b35b"}
{"parentUuid":"a92c3265-1519-42c0-9e2d-fccaf0f44f28","isSidechain":true,"userType":"external","cwd":"/local/nick/ai_iree","sessionId":"333d55b1-c32e-4aaa-b8da-adab81bfbb07","version":"2.1.44","gitBranch":"master","agentId":"ac793d5","slug":"purrfect-floating-lobster","message":{"model":"claude-opus-4-6","id":"msg_01J8UnRFT3y2FZ5FARn7LK3C","type":"message","role":"assistant","content":[{"type":"tool_use","id":"toolu_01KxPkKUguADc3Skzdy6Ax2i","name":"Bash","input":{"command":"ls /local/nick/ai_iree/dataset0211/test/MLIR-files/matmul_fused/ | grep 146b004d0242a3f3 | head -1","description":"Find one MLIR file for fingerprint 146b004d0242a3f3"},"caller":{"type":"direct"}}],"stop_reason":null,"stop_sequence":null,"usage":{"input_tokens":3,"cache_creation_input_tokens":10681,"cache_read_input_tokens":0,"cache_creation":{"ephemeral_5m_input_tokens":0,"ephemeral_1h_input_tokens":10681},"output_tokens":2,"service_tier":"standard","inference_geo":"not_available"}},"requestId":"req_011CYLna5WBSw6zvx5Bv91np","type":"assistant","uuid":"211657f2-f419-40ce-939a-4e9714c8aeac","timestamp":"2026-02-21T07:03:10.754Z"}
{"parentUuid":"211657f2-f419-40ce-939a-4e9714c8aeac","isSidechain":true,"userType":"external","cwd":"/local/nick/ai_iree","sessionId":"333d55b1-c32e-4aaa-b8da-adab81bfbb07","version":"2.1.44","gitBranch":"master","agentId":"ac793d5","slug":"purrfect-floating-lobster","type":"user","message":{"role":"user","content":[{"tool_use_id":"toolu_01KxPkKUguADc3Skzdy6Ax2i","type":"tool_result","content":"146b004d0242a3f3_0_0.mlir\nstty: 'standard input': Inappropriate ioctl for device","is_error":false}]},"uuid":"d7f3bfe5-56c5-43be-8965-1693fd517a18","timestamp":"2026-02-21T07:03:11.058Z","sourceToolAssistantUUID":"211657f2-f419-40ce-939a-4e9714c8aeac"}
{"parentUuid":"d7f3bfe5-56c5-43be-8965-1693fd517a18","isSidechain":true,"userType":"external","cwd":"/local/nick/ai_iree","sessionId":"333d55b1-c32e-4aaa-b8da-adab81bfbb07","version":"2.1.44","gitBranch":"master","agentId":"ac793d5","slug":"purrfect-floating-lobster","message":{"model":"claude-opus-4-6","id":"msg_01J8UnRFT3y2FZ5FARn7LK3C","type":"message","role":"assistant","content":[{"type":"tool_use","id":"toolu_01QexBC4Z6fQM3Sbk1qThQQJ","name":"Bash","input":{"command":"ls /local/nick/ai_iree/dataset0211/test/MLIR-files/matmul_fused/ | grep 1f6d41e51c594331 | head -1","description":"Find one MLIR file for fingerprint 1f6d41e51c594331"},"caller":{"type":"direct"}}],"stop_reason":null,"stop_sequence":null,"usage":{"input_tokens":3,"cache_creation_input_tokens":10681,"cache_read_input_tokens":0,"cache_creation":{"ephemeral_5m_input_tokens":0,"ephemeral_1h_input_tokens":10681},"output_tokens":2,"service_tier":"standard","inference_geo":"not_available"}},"requestId":"req_011CYLna5WBSw6zvx5Bv91np","type":"assistant","uuid":"cfd6957b-8d7d-449b-9ba6-f315f74c8104","timestamp":"2026-02-21T07:03:11.585Z"}
{"parentUuid":"cfd6957b-8d7d-449b-9ba6-f315f74c8104","isSidechain":true,"userType":"external","cwd":"/local/nick/ai_iree","sessionId":"333d55b1-c32e-4aaa-b8da-adab81bfbb07","version":"2.1.44","gitBranch":"master","agentId":"ac793d5","slug":"purrfect-floating-lobster","type":"user","message":{"role":"user","content":[{"tool_use_id":"toolu_01QexBC4Z6fQM3Sbk1qThQQJ","type":"tool_result","content":"1f6d41e51c594331_0_0.mlir\nstty: 'standard input': Inappropriate ioctl for device","is_error":false}]},"uuid":"079aeb6d-e687-4788-b98c-bcde5efdcd92","timestamp":"2026-02-21T07:03:11.883Z","sourceToolAssistantUUID":"cfd6957b-8d7d-449b-9ba6-f315f74c8104"}
{"parentUuid":"079aeb6d-e687-4788-b98c-bcde5efdcd92","isSidechain":true,"userType":"external","cwd":"/local/nick/ai_iree","sessionId":"333d55b1-c32e-4aaa-b8da-adab81bfbb07","version":"2.1.44","gitBranch":"master","agentId":"ac793d5","slug":"purrfect-floating-lobster","message":{"model":"claude-opus-4-6","id":"msg_01J8UnRFT3y2FZ5FARn7LK3C","type":"message","role":"assistant","content":[{"type":"tool_use","id":"toolu_01RN8Z2dEx7f8FphLAGVVq4W","name":"Bash","input":{"command":"ls /local/nick/ai_iree/dataset0211/test/MLIR-files/matmul_fused/ | grep 9aefcc246f22dc94 | head -1","description":"Find one MLIR file for fingerprint 9aefcc246f22dc94"},"caller":{"type":"direct"}}],"stop_reason":null,"stop_sequence":null,"usage":{"input_tokens":3,"cache_creation_input_tokens":10681,"cache_read_input_tokens":0,"cache_creation":{"ephemeral_5m_input_tokens":0,"ephemeral_1h_input_tokens":10681},"output_tokens":2,"service_tier":"standard","inference_geo":"not_available"}},"requestId":"req_011CYLna5WBSw6zvx5Bv91np","type":"assistant","uuid":"3d542d54-6d74-454c-865e-74656979f402","timestamp":"2026-02-21T07:03:12.353Z"}
{"parentUuid":"3d542d54-6d74-454c-865e-74656979f402","isSidechain":true,"userType":"external","cwd":"/local/nick/ai_iree","sessionId":"333d55b1-c32e-4aaa-b8da-adab81bfbb07","version":"2.1.44","gitBranch":"master","agentId":"ac793d5","slug":"purrfect-floating-lobster","type":"user","message":{"role":"user","content":[{"tool_use_id":"toolu_01RN8Z2dEx7f8FphLAGVVq4W","type":"tool_result","content":"9aefcc246f22dc94_0_0.mlir\nstty: 'standard input': Inappropriate ioctl for device","is_error":false}]},"uuid":"2462ffcd-5669-4de5-8683-4f5d2444cd03","timestamp":"2026-02-21T07:03:12.663Z","sourceToolAssistantUUID":"3d542d54-6d74-454c-865e-74656979f402"}
{"parentUuid":"2462ffcd-5669-4de5-8683-4f5d2444cd03","isSidechain":true,"userType":"external","cwd":"/local/nick/ai_iree","sessionId":"333d55b1-c32e-4aaa-b8da-adab81bfbb07","version":"2.1.44","gitBranch":"master","agentId":"ac793d5","slug":"purrfect-floating-lobster","message":{"model":"claude-opus-4-6","id":"msg_01Q2nmrCMG7VDThRnAEHjs17","type":"message","role":"assistant","content":[{"type":"text","text":"Good, found all 6 files. Now let me read the first 5 lines and the func.func signature from each file, and compile each one in parallel."}],"stop_reason":null,"stop_sequence":null,"usage":{"input_tokens":1,"cache_creation_input_tokens":1091,"cache_read_input_tokens":10681,"cache_creation":{"ephemeral_5m_input_tokens":0,"ephemeral_1h_input_tokens":1091},"output_tokens":1,"service_tier":"standard","inference_geo":"not_available"}},"requestId":"req_011CYLnaf8FfUtyXD3XP8U36","type":"assistant","uuid":"ce695982-d63d-4b61-99be-a71a6702e654","timestamp":"2026-02-21T07:03:15.787Z"}
{"parentUuid":"ce695982-d63d-4b61-99be-a71a6702e654","isSidechain":true,"userType":"external","cwd":"/local/nick/ai_iree","sessionId":"333d55b1-c32e-4aaa-b8da-adab81bfbb07","version":"2.1.44","gitBranch":"master","agentId":"ac793d5","slug":"purrfect-floating-lobster","message":{"model":"claude-opus-4-6","id":"msg_01Q2nmrCMG7VDThRnAEHjs17","type":"message","role":"assistant","content":[{"type":"tool_use","id":"toolu_018kE56zcDB4DBmAJ1RAf62x","name":"Bash","input":{"command":"head -5 /local/nick/ai_iree/dataset0211/test/MLIR-files/matmul_fused/b860513012d2a09f_0_0.mlir && echo \"---FUNC SIGNATURE---\" && grep -n 'func.func\\|func @' /local/nick/ai_iree/dataset0211/test/MLIR-files/matmul_fused/b860513012d2a09f_0_0.mlir | head -3","description":"Show first 5 lines and func signature for b860513012d2a09f"},"caller":{"type":"direct"}}],"stop_reason":null,"stop_sequence":null,"usage":{"input_tokens":1,"cache_creation_input_tokens":1091,"cache_read_input_tokens":10681,"cache_creation":{"ephemeral_5m_input_tokens":0,"ephemeral_1h_input_tokens":1091},"output_tokens":1,"service_tier":"standard","inference_geo":"not_available"}},"requestId":"req_011CYLnaf8FfUtyXD3XP8U36","type":"assistant","uuid":"d12f2b37-c313-4bf8-ab83-6c60f6728cbb","timestamp":"2026-02-21T07:03:17.628Z"}
{"parentUuid":"d12f2b37-c313-4bf8-ab83-6c60f6728cbb","isSidechain":true,"userType":"external","cwd":"/local/nick/ai_iree","sessionId":"333d55b1-c32e-4aaa-b8da-adab81bfbb07","version":"2.1.44","gitBranch":"master","agentId":"ac793d5","slug":"purrfect-floating-lobster","type":"user","message":{"role":"user","content":[{"tool_use_id":"toolu_018kE56zcDB4DBmAJ1RAf62x","type":"tool_result","content":"// --input=384x512xi8=1 --input=512x128xi8=1 --input=384xi32=1 --input=128xi32=1\n// Operator: linalg.matmul\n// Input 0: 384x512xi8\n// Input 1: 512x128xi8\n// Output 0: 384x128xi32\n---FUNC SIGNATURE---\n7:  func.func @main(%arg0: tensor<384x512xi8>, %arg1: tensor<512x128xi8>, %arg2: tensor<384xi32>, %arg3: tensor<128xi32>) -> tensor<384x128xi8> {\nstty: 'standard input': Inappropriate ioctl for device","is_error":false}]},"uuid":"98eea42b-914d-44fe-8146-d67d0cda95a2","timestamp":"2026-02-21T07:03:17.885Z","sourceToolAssistantUUID":"d12f2b37-c313-4bf8-ab83-6c60f6728cbb"}
{"parentUuid":"98eea42b-914d-44fe-8146-d67d0cda95a2","isSidechain":true,"userType":"external","cwd":"/local/nick/ai_iree","sessionId":"333d55b1-c32e-4aaa-b8da-adab81bfbb07","version":"2.1.44","gitBranch":"master","agentId":"ac793d5","slug":"purrfect-floating-lobster","message":{"model":"claude-opus-4-6","id":"msg_01Q2nmrCMG7VDThRnAEHjs17","type":"message","role":"assistant","content":[{"type":"tool_use","id":"toolu_011Sg5uVyJqmzF3dcuP5aojA","name":"Bash","input":{"command":"head -5 /local/nick/ai_iree/dataset0211/test/MLIR-files/matmul_fused/9ced5f4f4757a93c_0_0.mlir && echo \"---FUNC SIGNATURE---\" && grep -n 'func.func\\|func @' /local/nick/ai_iree/dataset0211/test/MLIR-files/matmul_fused/9ced5f4f4757a93c_0_0.mlir | head -3","description":"Show first 5 lines and func signature for 9ced5f4f4757a93c"},"caller":{"type":"direct"}}],"stop_reason":null,"stop_sequence":null,"usage":{"input_tokens":1,"cache_creation_input_tokens":1091,"cache_read_input_tokens":10681,"cache_creation":{"ephemeral_5m_input_tokens":0,"ephemeral_1h_input_tokens":1091},"output_tokens":1,"service_tier":"standard","inference_geo":"not_available"}},"requestId":"req_011CYLnaf8FfUtyXD3XP8U36","type":"assistant","uuid":"86d9efb8-fc6a-4c0d-a091-75acee5467a6","timestamp":"2026-02-21T07:03:19.079Z"}
{"parentUuid":"86d9efb8-fc6a-4c0d-a091-75acee5467a6","isSidechain":true,"userType":"external","cwd":"/local/nick/ai_iree","sessionId":"333d55b1-c32e-4aaa-b8da-adab81bfbb07","version":"2.1.44","gitBranch":"master","agentId":"ac793d5","slug":"purrfect-floating-lobster","type":"user","message":{"role":"user","content":[{"tool_use_id":"toolu_011Sg5uVyJqmzF3dcuP5aojA","type":"tool_result","content":"// --input=384x512xi8=1 --input=512x128xi8=1 --input=384xi32=1\n// Operator: linalg.matmul\n// Input 0: 384x512xi8\n// Input 1: 512x128xi8\n// Output 0: 384x128xi32\n---FUNC SIGNATURE---\n7:  func.func @main(%arg0: tensor<384x512xi8>, %arg1: tensor<512x128xi8>, %arg2: tensor<384xi32>) -> tensor<384x384xi8> {\nstty: 'standard input': Inappropriate ioctl for device","is_error":false}]},"uuid":"b27edf54-9ed9-4f69-8830-92156bc43678","timestamp":"2026-02-21T07:03:19.328Z","sourceToolAssistantUUID":"86d9efb8-fc6a-4c0d-a091-75acee5467a6"}
{"parentUuid":"b27edf54-9ed9-4f69-8830-92156bc43678","isSidechain":true,"userType":"external","cwd":"/local/nick/ai_iree","sessionId":"333d55b1-c32e-4aaa-b8da-adab81bfbb07","version":"2.1.44","gitBranch":"master","agentId":"ac793d5","slug":"purrfect-floating-lobster","message":{"model":"claude-opus-4-6","id":"msg_01Q2nmrCMG7VDThRnAEHjs17","type":"message","role":"assistant","content":[{"type":"tool_use","id":"toolu_01MaRzpAcDzv8Fhk4uqjZBsi","name":"Bash","input":{"command":"head -5 /local/nick/ai_iree/dataset0211/test/MLIR-files/matmul_fused/f36900f42a306536_0_0.mlir && echo \"---FUNC SIGNATURE---\" && grep -n 'func.func\\|func @' /local/nick/ai_iree/dataset0211/test/MLIR-files/matmul_fused/f36900f42a306536_0_0.mlir | head -3","description":"Show first 5 lines and func signature for f36900f42a306536"},"caller":{"type":"direct"}}],"stop_reason":null,"stop_sequence":null,"usage":{"input_tokens":1,"cache_creation_input_tokens":1091,"cache_read_input_tokens":10681,"cache_creation":{"ephemeral_5m_input_tokens":0,"ephemeral_1h_input_tokens":1091},"output_tokens":1,"service_tier":"standard","inference_geo":"not_available"}},"requestId":"req_011CYLnaf8FfUtyXD3XP8U36","type":"assistant","uuid":"4c5a7f9f-1eca-42d8-bc68-3b595aa5bef8","timestamp":"2026-02-21T07:03:20.333Z"}
{"parentUuid":"4c5a7f9f-1eca-42d8-bc68-3b595aa5bef8","isSidechain":true,"userType":"external","cwd":"/local/nick/ai_iree","sessionId":"333d55b1-c32e-4aaa-b8da-adab81bfbb07","version":"2.1.44","gitBranch":"master","agentId":"ac793d5","slug":"purrfect-floating-lobster","type":"user","message":{"role":"user","content":[{"tool_use_id":"toolu_01MaRzpAcDzv8Fhk4uqjZBsi","type":"tool_result","content":"// --input=384x512xi8=1 --input=512x128xi8=1 --input=128xi32=1 --input=128xi32=1 --input=384x128xi32=1 --input=128xi32=1\n// Operator: linalg.matmul\n// Input 0: 384x512xi8\n// Input 1: 512x128xi8\n// Output 0: 384x128xi32\n---FUNC SIGNATURE---\n7:  func.func @main(%arg0: tensor<384x512xi8>, %arg1: tensor<512x128xi8>, %arg2: tensor<128xi32>, %arg3: tensor<128xi32>, %arg4: tensor<384x128xi32>, %arg5: tensor<128xi32>) -> tensor<384x128xi8> {\nstty: 'standard input': Inappropriate ioctl for device","is_error":false}]},"uuid":"7a5c2e86-7a98-4b70-a0f0-f1afcfb451a6","timestamp":"2026-02-21T07:03:20.583Z","sourceToolAssistantUUID":"4c5a7f9f-1eca-42d8-bc68-3b595aa5bef8"}
{"parentUuid":"7a5c2e86-7a98-4b70-a0f0-f1afcfb451a6","isSidechain":true,"userType":"external","cwd":"/local/nick/ai_iree","sessionId":"333d55b1-c32e-4aaa-b8da-adab81bfbb07","version":"2.1.44","gitBranch":"master","agentId":"ac793d5","slug":"purrfect-floating-lobster","message":{"model":"claude-opus-4-6","id":"msg_01Q2nmrCMG7VDThRnAEHjs17","type":"message","role":"assistant","content":[{"type":"tool_use","id":"toolu_01Sd2QX3r5kvsGRQ4XvRyoUg","name":"Bash","input":{"command":"head -5 /local/nick/ai_iree/dataset0211/test/MLIR-files/matmul_fused/146b004d0242a3f3_0_0.mlir && echo \"---FUNC SIGNATURE---\" && grep -n 'func.func\\|func @' /local/nick/ai_iree/dataset0211/test/MLIR-files/matmul_fused/146b004d0242a3f3_0_0.mlir | head -3","description":"Show first 5 lines and func signature for 146b004d0242a3f3"},"caller":{"type":"direct"}}],"stop_reason":null,"stop_sequence":null,"usage":{"input_tokens":1,"cache_creation_input_tokens":1091,"cache_read_input_tokens":10681,"cache_creation":{"ephemeral_5m_input_tokens":0,"ephemeral_1h_input_tokens":1091},"output_tokens":1,"service_tier":"standard","inference_geo":"not_available"}},"requestId":"req_011CYLnaf8FfUtyXD3XP8U36","type":"assistant","uuid":"fcf755c5-2366-4861-9dc4-4c052901cfde","timestamp":"2026-02-21T07:03:21.753Z"}
{"parentUuid":"fcf755c5-2366-4861-9dc4-4c052901cfde","isSidechain":true,"userType":"external","cwd":"/local/nick/ai_iree","sessionId":"333d55b1-c32e-4aaa-b8da-adab81bfbb07","version":"2.1.44","gitBranch":"master","agentId":"ac793d5","slug":"purrfect-floating-lobster","type":"user","message":{"role":"user","content":[{"tool_use_id":"toolu_01Sd2QX3r5kvsGRQ4XvRyoUg","type":"tool_result","content":"// --input=384x512xi8=1 --input=512x128xi8=1 --input=128xi32=1 --input=384x128xi32=1 --input=128xi32=1 --input=128xi32=1\n// Operator: linalg.matmul\n// Input 0: 384x512xi8\n// Input 1: 512x128xi8\n// Output 0: 384x128xi32\n---FUNC SIGNATURE---\n7:  func.func @main(%arg0: tensor<384x512xi8>, %arg1: tensor<512x128xi8>, %arg2: tensor<128xi32>, %arg3: tensor<384x128xi32>, %arg4: tensor<128xi32>, %arg5: tensor<128xi32>) -> tensor<384x128xi8> {\nstty: 'standard input': Inappropriate ioctl for device","is_error":false}]},"uuid":"47939b40-d685-45f7-95d4-e41ec2d087c9","timestamp":"2026-02-21T07:03:21.999Z","sourceToolAssistantUUID":"fcf755c5-2366-4861-9dc4-4c052901cfde"}
{"parentUuid":"47939b40-d685-45f7-95d4-e41ec2d087c9","isSidechain":true,"userType":"external","cwd":"/local/nick/ai_iree","sessionId":"333d55b1-c32e-4aaa-b8da-adab81bfbb07","version":"2.1.44","gitBranch":"master","agentId":"ac793d5","slug":"purrfect-floating-lobster","message":{"model":"claude-opus-4-6","id":"msg_01Q2nmrCMG7VDThRnAEHjs17","type":"message","role":"assistant","content":[{"type":"tool_use","id":"toolu_018f93Bcwu4KbqqYVwzpNZiJ","name":"Bash","input":{"command":"head -5 /local/nick/ai_iree/dataset0211/test/MLIR-files/matmul_fused/1f6d41e51c594331_0_0.mlir && echo \"---FUNC SIGNATURE---\" && grep -n 'func.func\\|func @' /local/nick/ai_iree/dataset0211/test/MLIR-files/matmul_fused/1f6d41e51c594331_0_0.mlir | head -3","description":"Show first 5 lines and func signature for 1f6d41e51c594331"},"caller":{"type":"direct"}}],"stop_reason":null,"stop_sequence":null,"usage":{"input_tokens":1,"cache_creation_input_tokens":1091,"cache_read_input_tokens":10681,"cache_creation":{"ephemeral_5m_input_tokens":0,"ephemeral_1h_input_tokens":1091},"output_tokens":1,"service_tier":"standard","inference_geo":"not_available"}},"requestId":"req_011CYLnaf8FfUtyXD3XP8U36","type":"assistant","uuid":"b000f91b-e74c-4064-93bb-29cb3ca5e659","timestamp":"2026-02-21T07:03:23.039Z"}
{"parentUuid":"b000f91b-e74c-4064-93bb-29cb3ca5e659","isSidechain":true,"userType":"external","cwd":"/local/nick/ai_iree","sessionId":"333d55b1-c32e-4aaa-b8da-adab81bfbb07","version":"2.1.44","gitBranch":"master","agentId":"ac793d5","slug":"purrfect-floating-lobster","type":"user","message":{"role":"user","content":[{"tool_use_id":"toolu_018f93Bcwu4KbqqYVwzpNZiJ","type":"tool_result","content":"// --input=384x512xi8=1 --input=512x128xi8=1 --input=128xi32=1 --input=128xi32=1 --input=128xi32=1 --input=128xi8=1 --input=384x128xi32=1 --input=128xi32=1 --input=128xi32=1 --input=128xi32=1 --input=128xi8=1\n// Operator: linalg.matmul\n// Input 0: 384x512xi8\n// Input 1: 512x128xi8\n// Output 0: 384x128xi32\n---FUNC SIGNATURE---\n7:  func.func @main(%arg0: tensor<384x512xi8>, %arg1: tensor<512x128xi8>, %arg2: tensor<128xi32>, %arg3: tensor<128xi32>, %arg4: tensor<128xi32>, %arg5: tensor<128xi8>, %arg6: tensor<384x128xi32>, %arg7: tensor<128xi32>, %arg8: tensor<128xi32>, %arg9: tensor<128xi32>, %arg10: tensor<128xi8>) -> tensor<384x128xi8> {\nstty: 'standard input': Inappropriate ioctl for device","is_error":false}]},"uuid":"9c226994-1684-4214-90a8-4ad3e61fb91b","timestamp":"2026-02-21T07:03:23.285Z","sourceToolAssistantUUID":"b000f91b-e74c-4064-93bb-29cb3ca5e659"}
{"parentUuid":"9c226994-1684-4214-90a8-4ad3e61fb91b","isSidechain":true,"userType":"external","cwd":"/local/nick/ai_iree","sessionId":"333d55b1-c32e-4aaa-b8da-adab81bfbb07","version":"2.1.44","gitBranch":"master","agentId":"ac793d5","slug":"purrfect-floating-lobster","message":{"model":"claude-opus-4-6","id":"msg_01Q2nmrCMG7VDThRnAEHjs17","type":"message","role":"assistant","content":[{"type":"tool_use","id":"toolu_01FzXYccgnqbvRqfx6FxBchT","name":"Bash","input":{"command":"head -5 /local/nick/ai_iree/dataset0211/test/MLIR-files/matmul_fused/9aefcc246f22dc94_0_0.mlir && echo \"---FUNC SIGNATURE---\" && grep -n 'func.func\\|func @' /local/nick/ai_iree/dataset0211/test/MLIR-files/matmul_fused/9aefcc246f22dc94_0_0.mlir | head -3","description":"Show first 5 lines and func signature for 9aefcc246f22dc94"},"caller":{"type":"direct"}}],"stop_reason":null,"stop_sequence":null,"usage":{"input_tokens":1,"cache_creation_input_tokens":1091,"cache_read_input_tokens":10681,"cache_creation":{"ephemeral_5m_input_tokens":0,"ephemeral_1h_input_tokens":1091},"output_tokens":1,"service_tier":"standard","inference_geo":"not_available"}},"requestId":"req_011CYLnaf8FfUtyXD3XP8U36","type":"assistant","uuid":"0517b399-1016-47dd-848d-b267992706a2","timestamp":"2026-02-21T07:03:24.413Z"}
{"parentUuid":"0517b399-1016-47dd-848d-b267992706a2","isSidechain":true,"userType":"external","cwd":"/local/nick/ai_iree","sessionId":"333d55b1-c32e-4aaa-b8da-adab81bfbb07","version":"2.1.44","gitBranch":"master","agentId":"ac793d5","slug":"purrfect-floating-lobster","type":"user","message":{"role":"user","content":[{"tool_use_id":"toolu_01FzXYccgnqbvRqfx6FxBchT","type":"tool_result","content":"// --input=384x512xi8=1 --input=512x128xi8=1 --input=384x128xi32=1 --input=i8=1 --input=384x128xi32=1\n// Operator: linalg.matmul\n// Input 0: 384x512xi8\n// Input 1: 512x128xi8\n// Output 0: 384x128xi32\n---FUNC SIGNATURE---\n7:  func.func @main(%arg0: tensor<384x512xi8>, %arg1: tensor<512x128xi8>, %arg2: tensor<384x128xi32>, %arg3: tensor<i8>, %arg4: tensor<384x128xi32>) -> tensor<384x128xf32> {\nstty: 'standard input': Inappropriate ioctl for device","is_error":false}]},"uuid":"cfd69902-cd7c-49ec-a441-a16fcba8a1ee","timestamp":"2026-02-21T07:03:24.666Z","sourceToolAssistantUUID":"0517b399-1016-47dd-848d-b267992706a2"}
{"parentUuid":"cfd69902-cd7c-49ec-a441-a16fcba8a1ee","isSidechain":true,"userType":"external","cwd":"/local/nick/ai_iree","sessionId":"333d55b1-c32e-4aaa-b8da-adab81bfbb07","version":"2.1.44","gitBranch":"master","agentId":"ac793d5","slug":"purrfect-floating-lobster","message":{"model":"claude-opus-4-6","id":"msg_01DNkkLQHPLDYGZNJFLjQ7xS","type":"message","role":"assistant","content":[{"type":"text","text":"Now let me compile each file to see the actual errors."}],"stop_reason":null,"stop_sequence":null,"usage":{"input_tokens":1,"cache_creation_input_tokens":2645,"cache_read_input_tokens":11772,"cache_creation":{"ephemeral_5m_input_tokens":0,"ephemeral_1h_input_tokens":2645},"output_tokens":1,"service_tier":"standard","inference_geo":"not_available"}},"requestId":"req_011CYLnbYc83AXStzKBxKYqf","type":"assistant","uuid":"99eee685-7360-4ef4-ba6b-8729bc392479","timestamp":"2026-02-21T07:03:27.107Z"}
{"parentUuid":"99eee685-7360-4ef4-ba6b-8729bc392479","isSidechain":true,"userType":"external","cwd":"/local/nick/ai_iree","sessionId":"333d55b1-c32e-4aaa-b8da-adab81bfbb07","version":"2.1.44","gitBranch":"master","agentId":"ac793d5","slug":"purrfect-floating-lobster","message":{"model":"claude-opus-4-6","id":"msg_01DNkkLQHPLDYGZNJFLjQ7xS","type":"message","role":"assistant","content":[{"type":"tool_use","id":"toolu_01ATCKEJKQxhMMieDTHsAA3V","name":"Bash","input":{"command":"/local/nick/iree-linux/iree-build/tools/iree-compile --iree-hal-target-backends=llvm-cpu --iree-llvmcpu-target-triple=riscv32-pc-linux-elf --iree-llvmcpu-target-cpu=generic-rv32 --iree-llvmcpu-target-cpu-features=+m,+f,+d,+zvl1024b,+zve32x,+zve32f,+zve64x,+zve64f,+zve64d /local/nick/ai_iree/dataset0211/test/MLIR-files/matmul_fused/b860513012d2a09f_0_0.mlir -o /dev/null 2>&1 | head -10","description":"Compile b860513012d2a09f_0_0.mlir","timeout":60000},"caller":{"type":"direct"}}],"stop_reason":null,"stop_sequence":null,"usage":{"input_tokens":1,"cache_creation_input_tokens":2645,"cache_read_input_tokens":11772,"cache_creation":{"ephemeral_5m_input_tokens":0,"ephemeral_1h_input_tokens":2645},"output_tokens":1,"service_tier":"standard","inference_geo":"not_available"}},"requestId":"req_011CYLnbYc83AXStzKBxKYqf","type":"assistant","uuid":"9e2f6b3d-a939-40d7-9d90-00b08703e108","timestamp":"2026-02-21T07:03:32.045Z"}
{"parentUuid":"9e2f6b3d-a939-40d7-9d90-00b08703e108","isSidechain":true,"userType":"external","cwd":"/local/nick/ai_iree","sessionId":"333d55b1-c32e-4aaa-b8da-adab81bfbb07","version":"2.1.44","gitBranch":"master","agentId":"ac793d5","slug":"purrfect-floating-lobster","type":"user","message":{"role":"user","content":[{"tool_use_id":"toolu_01ATCKEJKQxhMMieDTHsAA3V","type":"tool_result","content":"/local/nick/ai_iree/dataset0211/test/MLIR-files/matmul_fused/b860513012d2a09f_0_0.mlir:19:305: error: use of value '%arg0' expects different type than prior uses: 'tensor<384x384xi8>' vs 'tensor<384x512xi8>'\n    %12 = linalg.matmul {compilation_info = #iree_codegen.compilation_info<lowering_config = #iree_codegen.lowering_config<tile_sizes = [[384, 128, 0], [384, 128, 0], [0, 0, 0], [2, 32, 0], [0, 0, 1], [0, 0, 0]]>, translation_info = #iree_codegen.translation_info<pipeline = CPUDoubleTilingExpert>>} ins(%arg0, %arg1 : tensor<384x384xi8>, tensor<384x128xi8>) outs(%11 : tensor<384x128xi32>) -> tensor<384x128xi32>\n                                                                                                                                                                                                                                                                                                                ^\n/local/nick/ai_iree/dataset0211/test/MLIR-files/matmul_fused/b860513012d2a09f_0_0.mlir:7:19: note: prior use here\n  func.func @main(%arg0: tensor<384x512xi8>, %arg1: tensor<512x128xi8>, %arg2: tensor<384xi32>, %arg3: tensor<128xi32>) -> tensor<384x128xi8> {\n                  ^\nstty: 'standard input': Inappropriate ioctl for device","is_error":false}]},"uuid":"734c7a7b-331f-4261-9d57-4ffb1ebfe584","timestamp":"2026-02-21T07:03:32.328Z","sourceToolAssistantUUID":"9e2f6b3d-a939-40d7-9d90-00b08703e108"}
{"parentUuid":"734c7a7b-331f-4261-9d57-4ffb1ebfe584","isSidechain":true,"userType":"external","cwd":"/local/nick/ai_iree","sessionId":"333d55b1-c32e-4aaa-b8da-adab81bfbb07","version":"2.1.44","gitBranch":"master","agentId":"ac793d5","slug":"purrfect-floating-lobster","message":{"model":"claude-opus-4-6","id":"msg_01DNkkLQHPLDYGZNJFLjQ7xS","type":"message","role":"assistant","content":[{"type":"tool_use","id":"toolu_0128SW7qU9q4MriNuVADj4Hu","name":"Bash","input":{"command":"/local/nick/iree-linux/iree-build/tools/iree-compile --iree-hal-target-backends=llvm-cpu --iree-llvmcpu-target-triple=riscv32-pc-linux-elf --iree-llvmcpu-target-cpu=generic-rv32 --iree-llvmcpu-target-cpu-features=+m,+f,+d,+zvl1024b,+zve32x,+zve32f,+zve64x,+zve64f,+zve64d /local/nick/ai_iree/dataset0211/test/MLIR-files/matmul_fused/9ced5f4f4757a93c_0_0.mlir -o /dev/null 2>&1 | head -10","description":"Compile 9ced5f4f4757a93c_0_0.mlir","timeout":60000},"caller":{"type":"direct"}}],"stop_reason":null,"stop_sequence":null,"usage":{"input_tokens":1,"cache_creation_input_tokens":2645,"cache_read_input_tokens":11772,"cache_creation":{"ephemeral_5m_input_tokens":0,"ephemeral_1h_input_tokens":2645},"output_tokens":1,"service_tier":"standard","inference_geo":"not_available"}},"requestId":"req_011CYLnbYc83AXStzKBxKYqf","type":"assistant","uuid":"8211b594-6235-4595-bf41-027d37467431","timestamp":"2026-02-21T07:03:35.055Z"}
{"parentUuid":"8211b594-6235-4595-bf41-027d37467431","isSidechain":true,"userType":"external","cwd":"/local/nick/ai_iree","sessionId":"333d55b1-c32e-4aaa-b8da-adab81bfbb07","version":"2.1.44","gitBranch":"master","agentId":"ac793d5","slug":"purrfect-floating-lobster","type":"user","message":{"role":"user","content":[{"tool_use_id":"toolu_0128SW7qU9q4MriNuVADj4Hu","type":"tool_result","content":"/local/nick/ai_iree/dataset0211/test/MLIR-files/matmul_fused/9ced5f4f4757a93c_0_0.mlir:18:312: error: use of value '%arg1' expects different type than prior uses: 'tensor<512x384xi8>' vs 'tensor<512x128xi8>'\n    %10 = linalg.matmul {compilation_info = #iree_codegen.compilation_info<lowering_config = #iree_codegen.lowering_config<tile_sizes = [[384, 128, 0], [384, 128, 0], [0, 0, 0], [2, 32, 0], [0, 0, 1], [0, 0, 0]]>, translation_info = #iree_codegen.translation_info<pipeline = CPUDoubleTilingExpert>>} ins(%arg0, %arg1 : tensor<384x512xi8>, tensor<512x384xi8>) outs(%9 : tensor<384x384xi32>) -> tensor<384x384xi32>\n                                                                                                                                                                                                                                                                                                                       ^\n/local/nick/ai_iree/dataset0211/test/MLIR-files/matmul_fused/9ced5f4f4757a93c_0_0.mlir:7:46: note: prior use here\n  func.func @main(%arg0: tensor<384x512xi8>, %arg1: tensor<512x128xi8>, %arg2: tensor<384xi32>) -> tensor<384x384xi8> {\n                                             ^\nstty: 'standard input': Inappropriate ioctl for device","is_error":false}]},"uuid":"ec69b754-8123-4d9f-ae58-4739b85823a0","timestamp":"2026-02-21T07:03:35.332Z","sourceToolAssistantUUID":"8211b594-6235-4595-bf41-027d37467431"}
{"parentUuid":"ec69b754-8123-4d9f-ae58-4739b85823a0","isSidechain":true,"userType":"external","cwd":"/local/nick/ai_iree","sessionId":"333d55b1-c32e-4aaa-b8da-adab81bfbb07","version":"2.1.44","gitBranch":"master","agentId":"ac793d5","slug":"purrfect-floating-lobster","message":{"model":"claude-opus-4-6","id":"msg_01DNkkLQHPLDYGZNJFLjQ7xS","type":"message","role":"assistant","content":[{"type":"tool_use","id":"toolu_01PPCg4RpBC5yqG2yygMMo2p","name":"Bash","input":{"command":"/local/nick/iree-linux/iree-build/tools/iree-compile --iree-hal-target-backends=llvm-cpu --iree-llvmcpu-target-triple=riscv32-pc-linux-elf --iree-llvmcpu-target-cpu=generic-rv32 --iree-llvmcpu-target-cpu-features=+m,+f,+d,+zvl1024b,+zve32x,+zve32f,+zve64x,+zve64f,+zve64d /local/nick/ai_iree/dataset0211/test/MLIR-files/matmul_fused/f36900f42a306536_0_0.mlir -o /dev/null 2>&1 | head -10","description":"Compile f36900f42a306536_0_0.mlir","timeout":60000},"caller":{"type":"direct"}}],"stop_reason":null,"stop_sequence":null,"usage":{"input_tokens":1,"cache_creation_input_tokens":2645,"cache_read_input_tokens":11772,"cache_creation":{"ephemeral_5m_input_tokens":0,"ephemeral_1h_input_tokens":2645},"output_tokens":1,"service_tier":"standard","inference_geo":"not_available"}},"requestId":"req_011CYLnbYc83AXStzKBxKYqf","type":"assistant","uuid":"6d8c355d-6b10-4261-a712-1c5bc39767d6","timestamp":"2026-02-21T07:03:37.739Z"}
{"parentUuid":"6d8c355d-6b10-4261-a712-1c5bc39767d6","isSidechain":true,"userType":"external","cwd":"/local/nick/ai_iree","sessionId":"333d55b1-c32e-4aaa-b8da-adab81bfbb07","version":"2.1.44","gitBranch":"master","agentId":"ac793d5","slug":"purrfect-floating-lobster","type":"user","message":{"role":"user","content":[{"tool_use_id":"toolu_01PPCg4RpBC5yqG2yygMMo2p","type":"tool_result","content":"/local/nick/ai_iree/dataset0211/test/MLIR-files/matmul_fused/f36900f42a306536_0_0.mlir:30:307: error: use of value '%arg4' expects different type than prior uses: 'tensor<128xi32>' vs 'tensor<384x128xi32>'\n    %17 = linalg.generic {indexing_maps = [affine_map<(d0, d1) -> (d0, d1)>, affine_map<(d0, d1) -> (d1)>, affine_map<(d0, d1) -> (d1)>, affine_map<(d0, d1) -> (d0, d1)>, affine_map<(d0, d1) -> (d1)>, affine_map<(d0, d1) -> (d0, d1)>], iterator_types = [\"parallel\", \"parallel\"]} ins(%9, %arg2, %arg3, %16, %arg4 : tensor<384x128xi32>, tensor<128xi32>, tensor<128xi32>, tensor<384x128xi32>, tensor<128xi32>) outs(%13 : tensor<384x128xi8>) {\n                                                                                                                                                                                                                                                                                                                  ^\n/local/nick/ai_iree/dataset0211/test/MLIR-files/matmul_fused/f36900f42a306536_0_0.mlir:7:121: note: prior use here\n  func.func @main(%arg0: tensor<384x512xi8>, %arg1: tensor<512x128xi8>, %arg2: tensor<128xi32>, %arg3: tensor<128xi32>, %arg4: tensor<384x128xi32>, %arg5: tensor<128xi32>) -> tensor<384x128xi8> {\n                                                                                                                        ^\nstty: 'standard input': Inappropriate ioctl for device","is_error":false}]},"uuid":"bbd77aef-1b60-4ace-ad60-1fa8f44f80e5","timestamp":"2026-02-21T07:03:38.029Z","sourceToolAssistantUUID":"6d8c355d-6b10-4261-a712-1c5bc39767d6"}
{"parentUuid":"bbd77aef-1b60-4ace-ad60-1fa8f44f80e5","isSidechain":true,"userType":"external","cwd":"/local/nick/ai_iree","sessionId":"333d55b1-c32e-4aaa-b8da-adab81bfbb07","version":"2.1.44","gitBranch":"master","agentId":"ac793d5","slug":"purrfect-floating-lobster","message":{"model":"claude-opus-4-6","id":"msg_01DNkkLQHPLDYGZNJFLjQ7xS","type":"message","role":"assistant","content":[{"type":"tool_use","id":"toolu_01RfpXWRqWgZ4jwF3e5Fqbe1","name":"Bash","input":{"command":"/local/nick/iree-linux/iree-build/tools/iree-compile --iree-hal-target-backends=llvm-cpu --iree-llvmcpu-target-triple=riscv32-pc-linux-elf --iree-llvmcpu-target-cpu=generic-rv32 --iree-llvmcpu-target-cpu-features=+m,+f,+d,+zvl1024b,+zve32x,+zve32f,+zve64x,+zve64f,+zve64d /local/nick/ai_iree/dataset0211/test/MLIR-files/matmul_fused/146b004d0242a3f3_0_0.mlir -o /dev/null 2>&1 | head -10","description":"Compile 146b004d0242a3f3_0_0.mlir","timeout":60000},"caller":{"type":"direct"}}],"stop_reason":null,"stop_sequence":null,"usage":{"input_tokens":1,"cache_creation_input_tokens":2645,"cache_read_input_tokens":11772,"cache_creation":{"ephemeral_5m_input_tokens":0,"ephemeral_1h_input_tokens":2645},"output_tokens":1,"service_tier":"standard","inference_geo":"not_available"}},"requestId":"req_011CYLnbYc83AXStzKBxKYqf","type":"assistant","uuid":"592da0fc-fe16-432f-b7ec-3594401093fa","timestamp":"2026-02-21T07:03:39.168Z"}
{"parentUuid":"592da0fc-fe16-432f-b7ec-3594401093fa","isSidechain":true,"userType":"external","cwd":"/local/nick/ai_iree","sessionId":"333d55b1-c32e-4aaa-b8da-adab81bfbb07","version":"2.1.44","gitBranch":"master","agentId":"ac793d5","slug":"purrfect-floating-lobster","type":"user","message":{"role":"user","content":[{"tool_use_id":"toolu_01RfpXWRqWgZ4jwF3e5Fqbe1","type":"tool_result","content":"/local/nick/ai_iree/dataset0211/test/MLIR-files/matmul_fused/146b004d0242a3f3_0_0.mlir:30:300: error: use of value '%arg3' expects different type than prior uses: 'tensor<128xi32>' vs 'tensor<384x128xi32>'\n    %17 = linalg.generic {indexing_maps = [affine_map<(d0, d1) -> (d0, d1)>, affine_map<(d0, d1) -> (d1)>, affine_map<(d0, d1) -> (d0, d1)>, affine_map<(d0, d1) -> (d1)>, affine_map<(d0, d1) -> (d1)>, affine_map<(d0, d1) -> (d0, d1)>], iterator_types = [\"parallel\", \"parallel\"]} ins(%9, %arg2, %16, %arg3, %arg4 : tensor<384x128xi32>, tensor<128xi32>, tensor<384x128xi32>, tensor<128xi32>, tensor<128xi32>) outs(%13 : tensor<384x128xi8>) {\n                                                                                                                                                                                                                                                                                                           ^\n/local/nick/ai_iree/dataset0211/test/MLIR-files/matmul_fused/146b004d0242a3f3_0_0.mlir:7:97: note: prior use here\n  func.func @main(%arg0: tensor<384x512xi8>, %arg1: tensor<512x128xi8>, %arg2: tensor<128xi32>, %arg3: tensor<384x128xi32>, %arg4: tensor<128xi32>, %arg5: tensor<128xi32>) -> tensor<384x128xi8> {\n                                                                                                ^\nstty: 'standard input': Inappropriate ioctl for device","is_error":false}]},"uuid":"f890d361-e2bc-494a-91b4-fe85b18ae800","timestamp":"2026-02-21T07:03:39.448Z","sourceToolAssistantUUID":"592da0fc-fe16-432f-b7ec-3594401093fa"}
{"parentUuid":"f890d361-e2bc-494a-91b4-fe85b18ae800","isSidechain":true,"userType":"external","cwd":"/local/nick/ai_iree","sessionId":"333d55b1-c32e-4aaa-b8da-adab81bfbb07","version":"2.1.44","gitBranch":"master","agentId":"ac793d5","slug":"purrfect-floating-lobster","message":{"model":"claude-opus-4-6","id":"msg_01DNkkLQHPLDYGZNJFLjQ7xS","type":"message","role":"assistant","content":[{"type":"tool_use","id":"toolu_011yYz6PMARkBdZmJ4V3WySS","name":"Bash","input":{"command":"/local/nick/iree-linux/iree-build/tools/iree-compile --iree-hal-target-backends=llvm-cpu --iree-llvmcpu-target-triple=riscv32-pc-linux-elf --iree-llvmcpu-target-cpu=generic-rv32 --iree-llvmcpu-target-cpu-features=+m,+f,+d,+zvl1024b,+zve32x,+zve32f,+zve64x,+zve64f,+zve64d /local/nick/ai_iree/dataset0211/test/MLIR-files/matmul_fused/1f6d41e51c594331_0_0.mlir -o /dev/null 2>&1 | head -10","description":"Compile 1f6d41e51c594331_0_0.mlir","timeout":60000},"caller":{"type":"direct"}}],"stop_reason":null,"stop_sequence":null,"usage":{"input_tokens":1,"cache_creation_input_tokens":2645,"cache_read_input_tokens":11772,"cache_creation":{"ephemeral_5m_input_tokens":0,"ephemeral_1h_input_tokens":2645},"output_tokens":1,"service_tier":"standard","inference_geo":"not_available"}},"requestId":"req_011CYLnbYc83AXStzKBxKYqf","type":"assistant","uuid":"34136ef1-1c3d-43c3-a506-d4aa4a207b3d","timestamp":"2026-02-21T07:03:41.637Z"}
{"parentUuid":"34136ef1-1c3d-43c3-a506-d4aa4a207b3d","isSidechain":true,"userType":"external","cwd":"/local/nick/ai_iree","sessionId":"333d55b1-c32e-4aaa-b8da-adab81bfbb07","version":"2.1.44","gitBranch":"master","agentId":"ac793d5","slug":"purrfect-floating-lobster","type":"user","message":{"role":"user","content":[{"tool_use_id":"toolu_011yYz6PMARkBdZmJ4V3WySS","type":"tool_result","content":"/local/nick/ai_iree/dataset0211/test/MLIR-files/matmul_fused/1f6d41e51c594331_0_0.mlir:24:472: error: use of value '%arg6' expects different type than prior uses: 'tensor<128xi32>' vs 'tensor<384x128xi32>'\n    %23 = linalg.generic {indexing_maps = [affine_map<(d0, d1) -> (d0, d1)>, affine_map<(d0, d1) -> (d1)>, affine_map<(d0, d1) -> (d1)>, affine_map<(d0, d1) -> (d1)>, affine_map<(d0, d1) -> (d1)>, affine_map<(d0, d1) -> (d0, d1)>, affine_map<(d0, d1) -> (d1)>, affine_map<(d0, d1) -> (d1)>, affine_map<(d0, d1) -> (d1)>, affine_map<(d0, d1) -> (d1)>, affine_map<(d0, d1) -> (d0, d1)>], iterator_types = [\"parallel\", \"parallel\"]} ins(%12, %arg2, %arg3, %arg4, %arg5, %22, %arg6, %arg7, %arg8, %arg9 : tensor<384x128xi32>, tensor<128xi32>, tensor<128xi32>, tensor<128xi32>, tensor<128xi8>, tensor<384x128xi32>, tensor<128xi32>, tensor<128xi32>, tensor<128xi32>, tensor<128xi8>) outs(%19 : tensor<384x128xi8>) {\n                                                                                                                                                                                                                                                                                                                                                                                                                                                                                       ^\n/local/nick/ai_iree/dataset0211/test/MLIR-files/matmul_fused/1f6d41e51c594331_0_0.mlir:7:168: note: prior use here\n  func.func @main(%arg0: tensor<384x512xi8>, %arg1: tensor<512x128xi8>, %arg2: tensor<128xi32>, %arg3: tensor<128xi32>, %arg4: tensor<128xi32>, %arg5: tensor<128xi8>, %arg6: tensor<384x128xi32>, %arg7: tensor<128xi32>, %arg8: tensor<128xi32>, %arg9: tensor<128xi32>, %arg10: tensor<128xi8>) -> tensor<384x128xi8> {\n                                                                                                                                                                       ^\nstty: 'standard input': Inappropriate ioctl for device","is_error":false}]},"uuid":"ddf13c57-af5c-45f1-bc47-a453e6cec335","timestamp":"2026-02-21T07:03:41.912Z","sourceToolAssistantUUID":"34136ef1-1c3d-43c3-a506-d4aa4a207b3d"}
{"parentUuid":"ddf13c57-af5c-45f1-bc47-a453e6cec335","isSidechain":true,"userType":"external","cwd":"/local/nick/ai_iree","sessionId":"333d55b1-c32e-4aaa-b8da-adab81bfbb07","version":"2.1.44","gitBranch":"master","agentId":"ac793d5","slug":"purrfect-floating-lobster","message":{"model":"claude-opus-4-6","id":"msg_01DNkkLQHPLDYGZNJFLjQ7xS","type":"message","role":"assistant","content":[{"type":"tool_use","id":"toolu_01PhtmHLpzXyqs4MUhL4QxkK","name":"Bash","input":{"command":"/local/nick/iree-linux/iree-build/tools/iree-compile --iree-hal-target-backends=llvm-cpu --iree-llvmcpu-target-triple=riscv32-pc-linux-elf --iree-llvmcpu-target-cpu=generic-rv32 --iree-llvmcpu-target-cpu-features=+m,+f,+d,+zvl1024b,+zve32x,+zve32f,+zve64x,+zve64f,+zve64d /local/nick/ai_iree/dataset0211/test/MLIR-files/matmul_fused/9aefcc246f22dc94_0_0.mlir -o /dev/null 2>&1 | head -10","description":"Compile 9aefcc246f22dc94_0_0.mlir","timeout":60000},"caller":{"type":"direct"}}],"stop_reason":null,"stop_sequence":null,"usage":{"input_tokens":1,"cache_creation_input_tokens":2645,"cache_read_input_tokens":11772,"cache_creation":{"ephemeral_5m_input_tokens":0,"ephemeral_1h_input_tokens":2645},"output_tokens":1,"service_tier":"standard","inference_geo":"not_available"}},"requestId":"req_011CYLnbYc83AXStzKBxKYqf","type":"assistant","uuid":"8e72390d-b264-42c3-83c7-c125754be461","timestamp":"2026-02-21T07:03:43.947Z"}
{"parentUuid":"8e72390d-b264-42c3-83c7-c125754be461","isSidechain":true,"userType":"external","cwd":"/local/nick/ai_iree","sessionId":"333d55b1-c32e-4aaa-b8da-adab81bfbb07","version":"2.1.44","gitBranch":"master","agentId":"ac793d5","slug":"purrfect-floating-lobster","type":"user","message":{"role":"user","content":[{"tool_use_id":"toolu_01PhtmHLpzXyqs4MUhL4QxkK","type":"tool_result","content":"/local/nick/ai_iree/dataset0211/test/MLIR-files/matmul_fused/9aefcc246f22dc94_0_0.mlir:17:5: error: floating point value not valid for specified type\n    %11 = tensor.empty() : tensor<384x128xf32>\n    ^\nstty: 'standard input': Inappropriate ioctl for device","is_error":false}]},"uuid":"37c22fba-ffbf-40f6-8d46-afe5ec684770","timestamp":"2026-02-21T07:03:44.223Z","sourceToolAssistantUUID":"8e72390d-b264-42c3-83c7-c125754be461"}
{"parentUuid":"37c22fba-ffbf-40f6-8d46-afe5ec684770","isSidechain":true,"userType":"external","cwd":"/local/nick/ai_iree","sessionId":"333d55b1-c32e-4aaa-b8da-adab81bfbb07","version":"2.1.44","gitBranch":"master","agentId":"ac793d5","slug":"purrfect-floating-lobster","message":{"model":"claude-opus-4-6","id":"msg_01JRnndSEDvRMSueSwicFj5E","type":"message","role":"assistant","content":[{"type":"text","text":"Now let me look more closely at the 9aefcc246f22dc94 error to understand the f32 issue better."}],"stop_reason":null,"stop_sequence":null,"usage":{"input_tokens":1,"cache_creation_input_tokens":4526,"cache_read_input_tokens":14417,"cache_creation":{"ephemeral_5m_input_tokens":0,"ephemeral_1h_input_tokens":4526},"output_tokens":1,"service_tier":"standard","inference_geo":"not_available"}},"requestId":"req_011CYLncz4LgEaSinbNcgzGe","type":"assistant","uuid":"8ebd7986-4b18-48ca-a7a5-32b430c61d31","timestamp":"2026-02-21T07:03:46.723Z"}
{"parentUuid":"8ebd7986-4b18-48ca-a7a5-32b430c61d31","isSidechain":true,"userType":"external","cwd":"/local/nick/ai_iree","sessionId":"333d55b1-c32e-4aaa-b8da-adab81bfbb07","version":"2.1.44","gitBranch":"master","agentId":"ac793d5","slug":"purrfect-floating-lobster","message":{"model":"claude-opus-4-6","id":"msg_01JRnndSEDvRMSueSwicFj5E","type":"message","role":"assistant","content":[{"type":"tool_use","id":"toolu_0162RXyEdTpkPSr5yXK2qVAo","name":"Bash","input":{"command":"/local/nick/iree-linux/iree-build/tools/iree-compile --iree-hal-target-backends=llvm-cpu --iree-llvmcpu-target-triple=riscv32-pc-linux-elf --iree-llvmcpu-target-cpu=generic-rv32 --iree-llvmcpu-target-cpu-features=+m,+f,+d,+zvl1024b,+zve32x,+zve32f,+zve64x,+zve64f,+zve64d /local/nick/ai_iree/dataset0211/test/MLIR-files/matmul_fused/9aefcc246f22dc94_0_0.mlir -o /dev/null 2>&1 | head -20","description":"Get more lines of error for 9aefcc246f22dc94","timeout":60000},"caller":{"type":"direct"}}],"stop_reason":null,"stop_sequence":null,"usage":{"input_tokens":1,"cache_creation_input_tokens":4526,"cache_read_input_tokens":14417,"cache_creation":{"ephemeral_5m_input_tokens":0,"ephemeral_1h_input_tokens":4526},"output_tokens":1,"service_tier":"standard","inference_geo":"not_available"}},"requestId":"req_011CYLncz4LgEaSinbNcgzGe","type":"assistant","uuid":"dd11b094-f98b-4a2e-a2f2-aa7bf19a677b","timestamp":"2026-02-21T07:03:50.287Z"}
{"parentUuid":"dd11b094-f98b-4a2e-a2f2-aa7bf19a677b","isSidechain":true,"userType":"external","cwd":"/local/nick/ai_iree","sessionId":"333d55b1-c32e-4aaa-b8da-adab81bfbb07","version":"2.1.44","gitBranch":"master","agentId":"ac793d5","slug":"purrfect-floating-lobster","type":"user","message":{"role":"user","content":[{"tool_use_id":"toolu_0162RXyEdTpkPSr5yXK2qVAo","type":"tool_result","content":"/local/nick/ai_iree/dataset0211/test/MLIR-files/matmul_fused/9aefcc246f22dc94_0_0.mlir:17:5: error: floating point value not valid for specified type\n    %11 = tensor.empty() : tensor<384x128xf32>\n    ^\nstty: 'standard input': Inappropriate ioctl for device","is_error":false}]},"uuid":"5c78b044-cba3-461b-be1f-46434a411376","timestamp":"2026-02-21T07:03:50.581Z","sourceToolAssistantUUID":"dd11b094-f98b-4a2e-a2f2-aa7bf19a677b"}
{"parentUuid":"5c78b044-cba3-461b-be1f-46434a411376","isSidechain":true,"userType":"external","cwd":"/local/nick/ai_iree","sessionId":"333d55b1-c32e-4aaa-b8da-adab81bfbb07","version":"2.1.44","gitBranch":"master","agentId":"ac793d5","slug":"purrfect-floating-lobster","message":{"model":"claude-opus-4-6","id":"msg_01JRnndSEDvRMSueSwicFj5E","type":"message","role":"assistant","content":[{"type":"tool_use","id":"toolu_01LDfC5oEsGtaQ8JNx8mGCPr","name":"Bash","input":{"command":"sed -n '14,20p' /local/nick/ai_iree/dataset0211/test/MLIR-files/matmul_fused/9aefcc246f22dc94_0_0.mlir","description":"Show lines around the error in 9aefcc246f22dc94"},"caller":{"type":"direct"}}],"stop_reason":null,"stop_sequence":null,"usage":{"input_tokens":1,"cache_creation_input_tokens":4526,"cache_read_input_tokens":14417,"cache_creation":{"ephemeral_5m_input_tokens":0,"ephemeral_1h_input_tokens":4526},"output_tokens":1,"service_tier":"standard","inference_geo":"not_available"}},"requestId":"req_011CYLncz4LgEaSinbNcgzGe","type":"assistant","uuid":"c313b29e-d590-4187-9364-88621f5dc971","timestamp":"2026-02-21T07:03:51.399Z"}
{"parentUuid":"c313b29e-d590-4187-9364-88621f5dc971","isSidechain":true,"userType":"external","cwd":"/local/nick/ai_iree","sessionId":"333d55b1-c32e-4aaa-b8da-adab81bfbb07","version":"2.1.44","gitBranch":"master","agentId":"ac793d5","slug":"purrfect-floating-lobster","type":"user","message":{"role":"user","content":[{"tool_use_id":"toolu_01LDfC5oEsGtaQ8JNx8mGCPr","type":"tool_result","content":"    %c41_i8 = arith.constant 41 : i8\n    %c7077888_i32 = arith.constant 7077888 : i32\n    %cst = arith.constant 0.0 : i8\n    %11 = tensor.empty() : tensor<384x128xf32>\n    %12 = tensor.empty() : tensor<384x128xi32>\n    %13 = linalg.fill ins(%c0_i32 : i32) outs(%12 : tensor<384x128xi32>) -> tensor<384x128xi32>\n    %14 = linalg.matmul {compilation_info = #iree_codegen.compilation_info<lowering_config = #iree_codegen.lowering_config<tile_sizes = [[384, 128, 0], [384, 128, 0], [0, 0, 0], [2, 32, 0], [0, 0, 1], [0, 0, 0]]>, translation_info = #iree_codegen.translation_info<pipeline = CPUDoubleTilingExpert>>} ins(%arg0, %arg1 : tensor<384x512xi8>, tensor<512x128xi8>) outs(%13 : tensor<384x128xi32>) -> tensor<384x128xi32>\nstty: 'standard input': Inappropriate ioctl for device","is_error":false}]},"uuid":"082efaf7-0247-43f7-90fc-13f4a4a06200","timestamp":"2026-02-21T07:03:51.648Z","sourceToolAssistantUUID":"c313b29e-d590-4187-9364-88621f5dc971"}
{"parentUuid":"082efaf7-0247-43f7-90fc-13f4a4a06200","isSidechain":true,"userType":"external","cwd":"/local/nick/ai_iree","sessionId":"333d55b1-c32e-4aaa-b8da-adab81bfbb07","version":"2.1.44","gitBranch":"master","agentId":"ac793d5","slug":"purrfect-floating-lobster","message":{"model":"claude-opus-4-6","id":"msg_01Knd14J7LXvhShkRFMSnCJC","type":"message","role":"assistant","content":[{"type":"text","text":"Now I have the full picture. Here is the summary.\n\n---\n\n## Summary of Compilation Errors for 6 Broken Fused Fingerprints\n\nAll 6 fingerprints fail due to **SSA type mismatches** introduced during the fused template shape remapping. There are 3 distinct root causes:\n\n### Root Cause 1: Matmul operand shapes not remapped correctly (2 fingerprints)\n\nThe `linalg.matmul` `ins(...)` operands still use the original template shapes instead of the new M/N/K-substituted shapes, conflicting with the function signature.\n\n| Fingerprint | Error |\n|---|---|\n| **b860513012d2a09f** | `%arg0` used as `tensor<384x384xi8>` in matmul but declared `tensor<384x512xi8>` in func signature |\n| **9ced5f4f4757a93c** | `%arg1` used as `tensor<512x384xi8>` in matmul but declared `tensor<512x128xi8>` in func signature |\n\nIn both cases, the matmul ins(...) operand types have the wrong dimension -- looks like M or N was substituted into the K dimension or vice versa during shape remapping.\n\n### Root Cause 2: Extra input arguments have wrong type -- 1D vs 2D mismatch (3 fingerprints)\n\nThe `linalg.generic` (post-matmul fusion ops) reference `%argN` with a `tensor<Dxi32>` (1D) type, but the func signature declares that argument as `tensor<MxNxi32>` (2D), or vice versa. The extra input shapes derived for the fused ops are not correctly ordered/mapped.\n\n| Fingerprint | Error |\n|---|---|\n| **f36900f42a306536** | `%arg4` used as `tensor<128xi32>` (1D) in generic, but declared `tensor<384x128xi32>` (2D) in func sig |\n| **146b004d0242a3f3** | `%arg3` used as `tensor<128xi32>` (1D) in generic, but declared `tensor<384x128xi32>` (2D) in func sig |\n| **1f6d41e51c594331** | `%arg6` used as `tensor<128xi32>` (1D) in generic, but declared `tensor<384x128xi32>` (2D) in func sig |\n\nThese all have the same pattern: the func signature lists the extra inputs in one order (with a 2D tensor at position N), but the body's `linalg.generic` `ins(...)` uses `%argN` expecting a 1D tensor at that position. The argument ordering between `_build_fused_func_args` and `_remap_fused_ssa_to_args` is inconsistent for the extra inputs.\n\n### Root Cause 3: Type mismatch -- f32 constant in i8 context (1 fingerprint)\n\n| Fingerprint | Error |\n|---|---|\n| **9aefcc246f22dc94** | `arith.constant 0.0 : i8` -- a floating-point literal `0.0` is used with integer type `i8`. Additionally, the output type is `tensor<384x128xf32>` but the matmul produces `i32` results. The template body mixes f32 and i8/i32 types incorrectly during remapping. |\n\nThe line `%cst = arith.constant 0.0 : i8` is invalid MLIR (float value for integer type), and there's a `tensor.empty() : tensor<384x128xf32>` that doesn't match the i32 arithmetic in the rest of the body.\n\n---\n\n### Common Theme\n\nAll 6 failures stem from the fused template generation pipeline (`_remap_fused_ssa_to_args` / `_build_fused_func_args` / `derive_extra_input_shape`) not correctly handling the shape/type substitutions when going from template to concrete MLIR:\n\n1. **Matmul operand shapes** are not all updated to the new M/N/K dimensions (root cause 1)\n2. **Extra input argument ordering** between the func signature and the body references is inconsistent -- the 1D bias vectors and 2D tensors get swapped (root cause 2)\n3. **Dtype propagation** fails when the template has mixed int/float operations, producing invalid type combinations (root cause 3)"}],"stop_reason":null,"stop_sequence":null,"usage":{"input_tokens":1,"cache_creation_input_tokens":954,"cache_read_input_tokens":18943,"cache_creation":{"ephemeral_5m_input_tokens":0,"ephemeral_1h_input_tokens":954},"output_tokens":1,"service_tier":"standard","inference_geo":"not_available"}},"requestId":"req_011CYLndXq3MiJTzG4suNGce","type":"assistant","uuid":"6b0be90c-ae63-4998-91e0-44cecda60c56","timestamp":"2026-02-21T07:04:17.062Z"}
